node {
  name: "npr_input"
  op: "Placeholder"
  attr {
    key: "dtype"
    value {
      type: DT_FLOAT
    }
  }
  attr {
    key: "shape"
    value {
      shape {
        dim {
          size: -1
        }
        dim {
          size: -1
        }
        dim {
          size: -1
        }
        dim {
          size: 1
        }
      }
    }
  }
}
node {
  name: "ds_input"
  op: "Placeholder"
  attr {
    key: "dtype"
    value {
      type: DT_FLOAT
    }
  }
  attr {
    key: "shape"
    value {
      shape {
        dim {
          size: -1
        }
        dim {
          size: -1
        }
        dim {
          size: -1
        }
        dim {
          size: 1
        }
      }
    }
  }
}
node {
  name: "fLMask_input"
  op: "Placeholder"
  attr {
    key: "dtype"
    value {
      type: DT_FLOAT
    }
  }
  attr {
    key: "shape"
    value {
      shape {
        dim {
          size: -1
        }
        dim {
          size: -1
        }
        dim {
          size: -1
        }
        dim {
          size: 1
        }
      }
    }
  }
}
node {
  name: "fLInvMask_input"
  op: "Placeholder"
  attr {
    key: "dtype"
    value {
      type: DT_FLOAT
    }
  }
  attr {
    key: "shape"
    value {
      shape {
        dim {
          size: -1
        }
        dim {
          size: -1
        }
        dim {
          size: -1
        }
        dim {
          size: 1
        }
      }
    }
  }
}
node {
  name: "gtN_input"
  op: "Placeholder"
  attr {
    key: "dtype"
    value {
      type: DT_FLOAT
    }
  }
  attr {
    key: "shape"
    value {
      shape {
        dim {
          size: -1
        }
        dim {
          size: -1
        }
        dim {
          size: -1
        }
        dim {
          size: 3
        }
      }
    }
  }
}
node {
  name: "gtD_input"
  op: "Placeholder"
  attr {
    key: "dtype"
    value {
      type: DT_FLOAT
    }
  }
  attr {
    key: "shape"
    value {
      shape {
        dim {
          size: -1
        }
        dim {
          size: -1
        }
        dim {
          size: -1
        }
        dim {
          size: 1
        }
      }
    }
  }
}
node {
  name: "gtField_input"
  op: "Placeholder"
  attr {
    key: "dtype"
    value {
      type: DT_FLOAT
    }
  }
  attr {
    key: "shape"
    value {
      shape {
        dim {
          size: -1
        }
        dim {
          size: -1
        }
        dim {
          size: -1
        }
        dim {
          size: 4
        }
      }
    }
  }
}
node {
  name: "clIMask_input"
  op: "Placeholder"
  attr {
    key: "dtype"
    value {
      type: DT_FLOAT
    }
  }
  attr {
    key: "shape"
    value {
      shape {
        dim {
          size: -1
        }
        dim {
          size: -1
        }
        dim {
          size: -1
        }
        dim {
          size: 1
        }
      }
    }
  }
}
node {
  name: "shapeMask_input"
  op: "Placeholder"
  attr {
    key: "dtype"
    value {
      type: DT_FLOAT
    }
  }
  attr {
    key: "shape"
    value {
      shape {
        dim {
          size: -1
        }
        dim {
          size: -1
        }
        dim {
          size: -1
        }
        dim {
          size: 1
        }
      }
    }
  }
}
node {
  name: "dsMask_input"
  op: "Placeholder"
  attr {
    key: "dtype"
    value {
      type: DT_FLOAT
    }
  }
  attr {
    key: "shape"
    value {
      shape {
        dim {
          size: -1
        }
        dim {
          size: -1
        }
        dim {
          size: -1
        }
        dim {
          size: 1
        }
      }
    }
  }
}
node {
  name: "2dMask_input"
  op: "Placeholder"
  attr {
    key: "dtype"
    value {
      type: DT_FLOAT
    }
  }
  attr {
    key: "shape"
    value {
      shape {
        dim {
          size: -1
        }
        dim {
          size: -1
        }
        dim {
          size: -1
        }
        dim {
          size: 1
        }
      }
    }
  }
}
node {
  name: "sLMask_input"
  op: "Placeholder"
  attr {
    key: "dtype"
    value {
      type: DT_FLOAT
    }
  }
  attr {
    key: "shape"
    value {
      shape {
        dim {
          size: -1
        }
        dim {
          size: -1
        }
        dim {
          size: -1
        }
        dim {
          size: 1
        }
      }
    }
  }
}
node {
  name: "curvMag_input"
  op: "Placeholder"
  attr {
    key: "dtype"
    value {
      type: DT_FLOAT
    }
  }
  attr {
    key: "shape"
    value {
      shape {
        dim {
          size: -1
        }
        dim {
          size: -1
        }
        dim {
          size: -1
        }
        dim {
          size: 1
        }
      }
    }
  }
}
node {
  name: "SASFieldNet/concat_field_input/axis"
  op: "Const"
  attr {
    key: "dtype"
    value {
      type: DT_INT32
    }
  }
  attr {
    key: "value"
    value {
      tensor {
        dtype: DT_INT32
        tensor_shape {
        }
        int_val: 3
      }
    }
  }
}
node {
  name: "SASFieldNet/concat_field_input"
  op: "ConcatV2"
  input: "npr_input"
  input: "2dMask_input"
  input: "ds_input"
  input: "fLMask_input"
  input: "sLMask_input"
  input: "curvMag_input"
  input: "SASFieldNet/concat_field_input/axis"
  attr {
    key: "N"
    value {
      i: 6
    }
  }
  attr {
    key: "T"
    value {
      type: DT_FLOAT
    }
  }
  attr {
    key: "Tidx"
    value {
      type: DT_INT32
    }
  }
}
node {
  name: "SASFieldNet/reg_f_input"
  op: "Identity"
  input: "SASFieldNet/concat_field_input"
  attr {
    key: "T"
    value {
      type: DT_FLOAT
    }
  }
}
node {
  name: "SASFieldNet/f_conv1/weights/Initializer/truncated_normal/shape"
  op: "Const"
  attr {
    key: "_class"
    value {
      list {
        s: "loc:@SASFieldNet/f_conv1/weights"
      }
    }
  }
  attr {
    key: "dtype"
    value {
      type: DT_INT32
    }
  }
  attr {
    key: "value"
    value {
      tensor {
        dtype: DT_INT32
        tensor_shape {
          dim {
            size: 4
          }
        }
        tensor_content: "\003\000\000\000\003\000\000\000\006\000\000\000 \000\000\000"
      }
    }
  }
}
node {
  name: "SASFieldNet/f_conv1/weights/Initializer/truncated_normal/mean"
  op: "Const"
  attr {
    key: "_class"
    value {
      list {
        s: "loc:@SASFieldNet/f_conv1/weights"
      }
    }
  }
  attr {
    key: "dtype"
    value {
      type: DT_FLOAT
    }
  }
  attr {
    key: "value"
    value {
      tensor {
        dtype: DT_FLOAT
        tensor_shape {
        }
        float_val: 0.0
      }
    }
  }
}
node {
  name: "SASFieldNet/f_conv1/weights/Initializer/truncated_normal/stddev"
  op: "Const"
  attr {
    key: "_class"
    value {
      list {
        s: "loc:@SASFieldNet/f_conv1/weights"
      }
    }
  }
  attr {
    key: "dtype"
    value {
      type: DT_FLOAT
    }
  }
  attr {
    key: "value"
    value {
      tensor {
        dtype: DT_FLOAT
        tensor_shape {
        }
        float_val: 0.009999999776482582
      }
    }
  }
}
node {
  name: "SASFieldNet/f_conv1/weights/Initializer/truncated_normal/TruncatedNormal"
  op: "TruncatedNormal"
  input: "SASFieldNet/f_conv1/weights/Initializer/truncated_normal/shape"
  attr {
    key: "T"
    value {
      type: DT_INT32
    }
  }
  attr {
    key: "_class"
    value {
      list {
        s: "loc:@SASFieldNet/f_conv1/weights"
      }
    }
  }
  attr {
    key: "dtype"
    value {
      type: DT_FLOAT
    }
  }
  attr {
    key: "seed"
    value {
      i: 0
    }
  }
  attr {
    key: "seed2"
    value {
      i: 0
    }
  }
}
node {
  name: "SASFieldNet/f_conv1/weights/Initializer/truncated_normal/mul"
  op: "Mul"
  input: "SASFieldNet/f_conv1/weights/Initializer/truncated_normal/TruncatedNormal"
  input: "SASFieldNet/f_conv1/weights/Initializer/truncated_normal/stddev"
  attr {
    key: "T"
    value {
      type: DT_FLOAT
    }
  }
  attr {
    key: "_class"
    value {
      list {
        s: "loc:@SASFieldNet/f_conv1/weights"
      }
    }
  }
}
node {
  name: "SASFieldNet/f_conv1/weights/Initializer/truncated_normal"
  op: "AddV2"
  input: "SASFieldNet/f_conv1/weights/Initializer/truncated_normal/mul"
  input: "SASFieldNet/f_conv1/weights/Initializer/truncated_normal/mean"
  attr {
    key: "T"
    value {
      type: DT_FLOAT
    }
  }
  attr {
    key: "_class"
    value {
      list {
        s: "loc:@SASFieldNet/f_conv1/weights"
      }
    }
  }
}
node {
  name: "SASFieldNet/f_conv1/weights"
  op: "VarHandleOp"
  attr {
    key: "_class"
    value {
      list {
        s: "loc:@SASFieldNet/f_conv1/weights"
      }
    }
  }
  attr {
    key: "allowed_devices"
    value {
      list {
      }
    }
  }
  attr {
    key: "container"
    value {
      s: ""
    }
  }
  attr {
    key: "dtype"
    value {
      type: DT_FLOAT
    }
  }
  attr {
    key: "shape"
    value {
      shape {
        dim {
          size: 3
        }
        dim {
          size: 3
        }
        dim {
          size: 6
        }
        dim {
          size: 32
        }
      }
    }
  }
  attr {
    key: "shared_name"
    value {
      s: "SASFieldNet/f_conv1/weights"
    }
  }
}
node {
  name: "SASFieldNet/f_conv1/weights/IsInitialized/VarIsInitializedOp"
  op: "VarIsInitializedOp"
  input: "SASFieldNet/f_conv1/weights"
}
node {
  name: "SASFieldNet/f_conv1/weights/Assign"
  op: "AssignVariableOp"
  input: "SASFieldNet/f_conv1/weights"
  input: "SASFieldNet/f_conv1/weights/Initializer/truncated_normal"
  attr {
    key: "dtype"
    value {
      type: DT_FLOAT
    }
  }
}
node {
  name: "SASFieldNet/f_conv1/weights/Read/ReadVariableOp"
  op: "ReadVariableOp"
  input: "SASFieldNet/f_conv1/weights"
  attr {
    key: "dtype"
    value {
      type: DT_FLOAT
    }
  }
}
node {
  name: "SASFieldNet/f_conv1/kernel/Regularizer/Square/ReadVariableOp"
  op: "ReadVariableOp"
  input: "SASFieldNet/f_conv1/weights"
  attr {
    key: "dtype"
    value {
      type: DT_FLOAT
    }
  }
}
node {
  name: "SASFieldNet/f_conv1/kernel/Regularizer/Square"
  op: "Square"
  input: "SASFieldNet/f_conv1/kernel/Regularizer/Square/ReadVariableOp"
  attr {
    key: "T"
    value {
      type: DT_FLOAT
    }
  }
}
node {
  name: "SASFieldNet/f_conv1/kernel/Regularizer/Const"
  op: "Const"
  attr {
    key: "dtype"
    value {
      type: DT_INT32
    }
  }
  attr {
    key: "value"
    value {
      tensor {
        dtype: DT_INT32
        tensor_shape {
          dim {
            size: 4
          }
        }
        tensor_content: "\000\000\000\000\001\000\000\000\002\000\000\000\003\000\000\000"
      }
    }
  }
}
node {
  name: "SASFieldNet/f_conv1/kernel/Regularizer/Sum"
  op: "Sum"
  input: "SASFieldNet/f_conv1/kernel/Regularizer/Square"
  input: "SASFieldNet/f_conv1/kernel/Regularizer/Const"
  attr {
    key: "T"
    value {
      type: DT_FLOAT
    }
  }
  attr {
    key: "Tidx"
    value {
      type: DT_INT32
    }
  }
  attr {
    key: "keep_dims"
    value {
      b: false
    }
  }
}
node {
  name: "SASFieldNet/f_conv1/kernel/Regularizer/mul/x"
  op: "Const"
  attr {
    key: "dtype"
    value {
      type: DT_FLOAT
    }
  }
  attr {
    key: "value"
    value {
      tensor {
        dtype: DT_FLOAT
        tensor_shape {
        }
        float_val: 0.0002500000118743628
      }
    }
  }
}
node {
  name: "SASFieldNet/f_conv1/kernel/Regularizer/mul"
  op: "Mul"
  input: "SASFieldNet/f_conv1/kernel/Regularizer/mul/x"
  input: "SASFieldNet/f_conv1/kernel/Regularizer/Sum"
  attr {
    key: "T"
    value {
      type: DT_FLOAT
    }
  }
}
node {
  name: "SASFieldNet/f_conv1/Conv2D/ReadVariableOp"
  op: "ReadVariableOp"
  input: "SASFieldNet/f_conv1/weights"
  attr {
    key: "dtype"
    value {
      type: DT_FLOAT
    }
  }
}
node {
  name: "SASFieldNet/f_conv1/Conv2D"
  op: "Conv2D"
  input: "SASFieldNet/reg_f_input"
  input: "SASFieldNet/f_conv1/Conv2D/ReadVariableOp"
  attr {
    key: "T"
    value {
      type: DT_FLOAT
    }
  }
  attr {
    key: "data_format"
    value {
      s: "NHWC"
    }
  }
  attr {
    key: "dilations"
    value {
      list {
        i: 1
        i: 1
        i: 1
        i: 1
      }
    }
  }
  attr {
    key: "explicit_paddings"
    value {
      list {
      }
    }
  }
  attr {
    key: "padding"
    value {
      s: "SAME"
    }
  }
  attr {
    key: "strides"
    value {
      list {
        i: 1
        i: 1
        i: 1
        i: 1
      }
    }
  }
  attr {
    key: "use_cudnn_on_gpu"
    value {
      b: true
    }
  }
}
node {
  name: "SASFieldNet/f_conv1/BatchNorm/Const"
  op: "Const"
  attr {
    key: "dtype"
    value {
      type: DT_FLOAT
    }
  }
  attr {
    key: "value"
    value {
      tensor {
        dtype: DT_FLOAT
        tensor_shape {
          dim {
            size: 32
          }
        }
        float_val: 1.0
      }
    }
  }
}
node {
  name: "SASFieldNet/f_conv1/BatchNorm/beta/Initializer/zeros"
  op: "Const"
  attr {
    key: "_class"
    value {
      list {
        s: "loc:@SASFieldNet/f_conv1/BatchNorm/beta"
      }
    }
  }
  attr {
    key: "dtype"
    value {
      type: DT_FLOAT
    }
  }
  attr {
    key: "value"
    value {
      tensor {
        dtype: DT_FLOAT
        tensor_shape {
          dim {
            size: 32
          }
        }
        float_val: 0.0
      }
    }
  }
}
node {
  name: "SASFieldNet/f_conv1/BatchNorm/beta"
  op: "VarHandleOp"
  attr {
    key: "_class"
    value {
      list {
        s: "loc:@SASFieldNet/f_conv1/BatchNorm/beta"
      }
    }
  }
  attr {
    key: "allowed_devices"
    value {
      list {
      }
    }
  }
  attr {
    key: "container"
    value {
      s: ""
    }
  }
  attr {
    key: "dtype"
    value {
      type: DT_FLOAT
    }
  }
  attr {
    key: "shape"
    value {
      shape {
        dim {
          size: 32
        }
      }
    }
  }
  attr {
    key: "shared_name"
    value {
      s: "SASFieldNet/f_conv1/BatchNorm/beta"
    }
  }
}
node {
  name: "SASFieldNet/f_conv1/BatchNorm/beta/IsInitialized/VarIsInitializedOp"
  op: "VarIsInitializedOp"
  input: "SASFieldNet/f_conv1/BatchNorm/beta"
}
node {
  name: "SASFieldNet/f_conv1/BatchNorm/beta/Assign"
  op: "AssignVariableOp"
  input: "SASFieldNet/f_conv1/BatchNorm/beta"
  input: "SASFieldNet/f_conv1/BatchNorm/beta/Initializer/zeros"
  attr {
    key: "dtype"
    value {
      type: DT_FLOAT
    }
  }
}
node {
  name: "SASFieldNet/f_conv1/BatchNorm/beta/Read/ReadVariableOp"
  op: "ReadVariableOp"
  input: "SASFieldNet/f_conv1/BatchNorm/beta"
  attr {
    key: "dtype"
    value {
      type: DT_FLOAT
    }
  }
}
node {
  name: "SASFieldNet/f_conv1/BatchNorm/moving_mean/Initializer/zeros"
  op: "Const"
  attr {
    key: "_class"
    value {
      list {
        s: "loc:@SASFieldNet/f_conv1/BatchNorm/moving_mean"
      }
    }
  }
  attr {
    key: "dtype"
    value {
      type: DT_FLOAT
    }
  }
  attr {
    key: "value"
    value {
      tensor {
        dtype: DT_FLOAT
        tensor_shape {
          dim {
            size: 32
          }
        }
        float_val: 0.0
      }
    }
  }
}
node {
  name: "SASFieldNet/f_conv1/BatchNorm/moving_mean"
  op: "VarHandleOp"
  attr {
    key: "_class"
    value {
      list {
        s: "loc:@SASFieldNet/f_conv1/BatchNorm/moving_mean"
      }
    }
  }
  attr {
    key: "allowed_devices"
    value {
      list {
      }
    }
  }
  attr {
    key: "container"
    value {
      s: ""
    }
  }
  attr {
    key: "dtype"
    value {
      type: DT_FLOAT
    }
  }
  attr {
    key: "shape"
    value {
      shape {
        dim {
          size: 32
        }
      }
    }
  }
  attr {
    key: "shared_name"
    value {
      s: "SASFieldNet/f_conv1/BatchNorm/moving_mean"
    }
  }
}
node {
  name: "SASFieldNet/f_conv1/BatchNorm/moving_mean/IsInitialized/VarIsInitializedOp"
  op: "VarIsInitializedOp"
  input: "SASFieldNet/f_conv1/BatchNorm/moving_mean"
}
node {
  name: "SASFieldNet/f_conv1/BatchNorm/moving_mean/Assign"
  op: "AssignVariableOp"
  input: "SASFieldNet/f_conv1/BatchNorm/moving_mean"
  input: "SASFieldNet/f_conv1/BatchNorm/moving_mean/Initializer/zeros"
  attr {
    key: "dtype"
    value {
      type: DT_FLOAT
    }
  }
}
node {
  name: "SASFieldNet/f_conv1/BatchNorm/moving_mean/Read/ReadVariableOp"
  op: "ReadVariableOp"
  input: "SASFieldNet/f_conv1/BatchNorm/moving_mean"
  attr {
    key: "dtype"
    value {
      type: DT_FLOAT
    }
  }
}
node {
  name: "SASFieldNet/f_conv1/BatchNorm/moving_variance/Initializer/ones"
  op: "Const"
  attr {
    key: "_class"
    value {
      list {
        s: "loc:@SASFieldNet/f_conv1/BatchNorm/moving_variance"
      }
    }
  }
  attr {
    key: "dtype"
    value {
      type: DT_FLOAT
    }
  }
  attr {
    key: "value"
    value {
      tensor {
        dtype: DT_FLOAT
        tensor_shape {
          dim {
            size: 32
          }
        }
        float_val: 1.0
      }
    }
  }
}
node {
  name: "SASFieldNet/f_conv1/BatchNorm/moving_variance"
  op: "VarHandleOp"
  attr {
    key: "_class"
    value {
      list {
        s: "loc:@SASFieldNet/f_conv1/BatchNorm/moving_variance"
      }
    }
  }
  attr {
    key: "allowed_devices"
    value {
      list {
      }
    }
  }
  attr {
    key: "container"
    value {
      s: ""
    }
  }
  attr {
    key: "dtype"
    value {
      type: DT_FLOAT
    }
  }
  attr {
    key: "shape"
    value {
      shape {
        dim {
          size: 32
        }
      }
    }
  }
  attr {
    key: "shared_name"
    value {
      s: "SASFieldNet/f_conv1/BatchNorm/moving_variance"
    }
  }
}
node {
  name: "SASFieldNet/f_conv1/BatchNorm/moving_variance/IsInitialized/VarIsInitializedOp"
  op: "VarIsInitializedOp"
  input: "SASFieldNet/f_conv1/BatchNorm/moving_variance"
}
node {
  name: "SASFieldNet/f_conv1/BatchNorm/moving_variance/Assign"
  op: "AssignVariableOp"
  input: "SASFieldNet/f_conv1/BatchNorm/moving_variance"
  input: "SASFieldNet/f_conv1/BatchNorm/moving_variance/Initializer/ones"
  attr {
    key: "dtype"
    value {
      type: DT_FLOAT
    }
  }
}
node {
  name: "SASFieldNet/f_conv1/BatchNorm/moving_variance/Read/ReadVariableOp"
  op: "ReadVariableOp"
  input: "SASFieldNet/f_conv1/BatchNorm/moving_variance"
  attr {
    key: "dtype"
    value {
      type: DT_FLOAT
    }
  }
}
node {
  name: "SASFieldNet/f_conv1/BatchNorm/ReadVariableOp"
  op: "ReadVariableOp"
  input: "SASFieldNet/f_conv1/BatchNorm/beta"
  attr {
    key: "dtype"
    value {
      type: DT_FLOAT
    }
  }
}
node {
  name: "SASFieldNet/f_conv1/BatchNorm/FusedBatchNormV3/ReadVariableOp"
  op: "ReadVariableOp"
  input: "SASFieldNet/f_conv1/BatchNorm/moving_mean"
  attr {
    key: "dtype"
    value {
      type: DT_FLOAT
    }
  }
}
node {
  name: "SASFieldNet/f_conv1/BatchNorm/FusedBatchNormV3/ReadVariableOp_1"
  op: "ReadVariableOp"
  input: "SASFieldNet/f_conv1/BatchNorm/moving_variance"
  attr {
    key: "dtype"
    value {
      type: DT_FLOAT
    }
  }
}
node {
  name: "SASFieldNet/f_conv1/BatchNorm/FusedBatchNormV3"
  op: "FusedBatchNormV3"
  input: "SASFieldNet/f_conv1/Conv2D"
  input: "SASFieldNet/f_conv1/BatchNorm/Const"
  input: "SASFieldNet/f_conv1/BatchNorm/ReadVariableOp"
  input: "SASFieldNet/f_conv1/BatchNorm/FusedBatchNormV3/ReadVariableOp"
  input: "SASFieldNet/f_conv1/BatchNorm/FusedBatchNormV3/ReadVariableOp_1"
  attr {
    key: "T"
    value {
      type: DT_FLOAT
    }
  }
  attr {
    key: "U"
    value {
      type: DT_FLOAT
    }
  }
  attr {
    key: "data_format"
    value {
      s: "NHWC"
    }
  }
  attr {
    key: "epsilon"
    value {
      f: 0.0010000000474974513
    }
  }
  attr {
    key: "exponential_avg_factor"
    value {
      f: 1.0
    }
  }
  attr {
    key: "is_training"
    value {
      b: false
    }
  }
}
node {
  name: "SASFieldNet/f_conv1/Relu"
  op: "Relu"
  input: "SASFieldNet/f_conv1/BatchNorm/FusedBatchNormV3"
  attr {
    key: "T"
    value {
      type: DT_FLOAT
    }
  }
}
node {
  name: "SASFieldNet/f_conv2/weights/Initializer/truncated_normal/shape"
  op: "Const"
  attr {
    key: "_class"
    value {
      list {
        s: "loc:@SASFieldNet/f_conv2/weights"
      }
    }
  }
  attr {
    key: "dtype"
    value {
      type: DT_INT32
    }
  }
  attr {
    key: "value"
    value {
      tensor {
        dtype: DT_INT32
        tensor_shape {
          dim {
            size: 4
          }
        }
        tensor_content: "\003\000\000\000\003\000\000\000 \000\000\000 \000\000\000"
      }
    }
  }
}
node {
  name: "SASFieldNet/f_conv2/weights/Initializer/truncated_normal/mean"
  op: "Const"
  attr {
    key: "_class"
    value {
      list {
        s: "loc:@SASFieldNet/f_conv2/weights"
      }
    }
  }
  attr {
    key: "dtype"
    value {
      type: DT_FLOAT
    }
  }
  attr {
    key: "value"
    value {
      tensor {
        dtype: DT_FLOAT
        tensor_shape {
        }
        float_val: 0.0
      }
    }
  }
}
node {
  name: "SASFieldNet/f_conv2/weights/Initializer/truncated_normal/stddev"
  op: "Const"
  attr {
    key: "_class"
    value {
      list {
        s: "loc:@SASFieldNet/f_conv2/weights"
      }
    }
  }
  attr {
    key: "dtype"
    value {
      type: DT_FLOAT
    }
  }
  attr {
    key: "value"
    value {
      tensor {
        dtype: DT_FLOAT
        tensor_shape {
        }
        float_val: 0.009999999776482582
      }
    }
  }
}
node {
  name: "SASFieldNet/f_conv2/weights/Initializer/truncated_normal/TruncatedNormal"
  op: "TruncatedNormal"
  input: "SASFieldNet/f_conv2/weights/Initializer/truncated_normal/shape"
  attr {
    key: "T"
    value {
      type: DT_INT32
    }
  }
  attr {
    key: "_class"
    value {
      list {
        s: "loc:@SASFieldNet/f_conv2/weights"
      }
    }
  }
  attr {
    key: "dtype"
    value {
      type: DT_FLOAT
    }
  }
  attr {
    key: "seed"
    value {
      i: 0
    }
  }
  attr {
    key: "seed2"
    value {
      i: 0
    }
  }
}
node {
  name: "SASFieldNet/f_conv2/weights/Initializer/truncated_normal/mul"
  op: "Mul"
  input: "SASFieldNet/f_conv2/weights/Initializer/truncated_normal/TruncatedNormal"
  input: "SASFieldNet/f_conv2/weights/Initializer/truncated_normal/stddev"
  attr {
    key: "T"
    value {
      type: DT_FLOAT
    }
  }
  attr {
    key: "_class"
    value {
      list {
        s: "loc:@SASFieldNet/f_conv2/weights"
      }
    }
  }
}
node {
  name: "SASFieldNet/f_conv2/weights/Initializer/truncated_normal"
  op: "AddV2"
  input: "SASFieldNet/f_conv2/weights/Initializer/truncated_normal/mul"
  input: "SASFieldNet/f_conv2/weights/Initializer/truncated_normal/mean"
  attr {
    key: "T"
    value {
      type: DT_FLOAT
    }
  }
  attr {
    key: "_class"
    value {
      list {
        s: "loc:@SASFieldNet/f_conv2/weights"
      }
    }
  }
}
node {
  name: "SASFieldNet/f_conv2/weights"
  op: "VarHandleOp"
  attr {
    key: "_class"
    value {
      list {
        s: "loc:@SASFieldNet/f_conv2/weights"
      }
    }
  }
  attr {
    key: "allowed_devices"
    value {
      list {
      }
    }
  }
  attr {
    key: "container"
    value {
      s: ""
    }
  }
  attr {
    key: "dtype"
    value {
      type: DT_FLOAT
    }
  }
  attr {
    key: "shape"
    value {
      shape {
        dim {
          size: 3
        }
        dim {
          size: 3
        }
        dim {
          size: 32
        }
        dim {
          size: 32
        }
      }
    }
  }
  attr {
    key: "shared_name"
    value {
      s: "SASFieldNet/f_conv2/weights"
    }
  }
}
node {
  name: "SASFieldNet/f_conv2/weights/IsInitialized/VarIsInitializedOp"
  op: "VarIsInitializedOp"
  input: "SASFieldNet/f_conv2/weights"
}
node {
  name: "SASFieldNet/f_conv2/weights/Assign"
  op: "AssignVariableOp"
  input: "SASFieldNet/f_conv2/weights"
  input: "SASFieldNet/f_conv2/weights/Initializer/truncated_normal"
  attr {
    key: "dtype"
    value {
      type: DT_FLOAT
    }
  }
}
node {
  name: "SASFieldNet/f_conv2/weights/Read/ReadVariableOp"
  op: "ReadVariableOp"
  input: "SASFieldNet/f_conv2/weights"
  attr {
    key: "dtype"
    value {
      type: DT_FLOAT
    }
  }
}
node {
  name: "SASFieldNet/f_conv2/kernel/Regularizer/Square/ReadVariableOp"
  op: "ReadVariableOp"
  input: "SASFieldNet/f_conv2/weights"
  attr {
    key: "dtype"
    value {
      type: DT_FLOAT
    }
  }
}
node {
  name: "SASFieldNet/f_conv2/kernel/Regularizer/Square"
  op: "Square"
  input: "SASFieldNet/f_conv2/kernel/Regularizer/Square/ReadVariableOp"
  attr {
    key: "T"
    value {
      type: DT_FLOAT
    }
  }
}
node {
  name: "SASFieldNet/f_conv2/kernel/Regularizer/Const"
  op: "Const"
  attr {
    key: "dtype"
    value {
      type: DT_INT32
    }
  }
  attr {
    key: "value"
    value {
      tensor {
        dtype: DT_INT32
        tensor_shape {
          dim {
            size: 4
          }
        }
        tensor_content: "\000\000\000\000\001\000\000\000\002\000\000\000\003\000\000\000"
      }
    }
  }
}
node {
  name: "SASFieldNet/f_conv2/kernel/Regularizer/Sum"
  op: "Sum"
  input: "SASFieldNet/f_conv2/kernel/Regularizer/Square"
  input: "SASFieldNet/f_conv2/kernel/Regularizer/Const"
  attr {
    key: "T"
    value {
      type: DT_FLOAT
    }
  }
  attr {
    key: "Tidx"
    value {
      type: DT_INT32
    }
  }
  attr {
    key: "keep_dims"
    value {
      b: false
    }
  }
}
node {
  name: "SASFieldNet/f_conv2/kernel/Regularizer/mul/x"
  op: "Const"
  attr {
    key: "dtype"
    value {
      type: DT_FLOAT
    }
  }
  attr {
    key: "value"
    value {
      tensor {
        dtype: DT_FLOAT
        tensor_shape {
        }
        float_val: 0.0002500000118743628
      }
    }
  }
}
node {
  name: "SASFieldNet/f_conv2/kernel/Regularizer/mul"
  op: "Mul"
  input: "SASFieldNet/f_conv2/kernel/Regularizer/mul/x"
  input: "SASFieldNet/f_conv2/kernel/Regularizer/Sum"
  attr {
    key: "T"
    value {
      type: DT_FLOAT
    }
  }
}
node {
  name: "SASFieldNet/f_conv2/Conv2D/ReadVariableOp"
  op: "ReadVariableOp"
  input: "SASFieldNet/f_conv2/weights"
  attr {
    key: "dtype"
    value {
      type: DT_FLOAT
    }
  }
}
node {
  name: "SASFieldNet/f_conv2/Conv2D"
  op: "Conv2D"
  input: "SASFieldNet/f_conv1/Relu"
  input: "SASFieldNet/f_conv2/Conv2D/ReadVariableOp"
  attr {
    key: "T"
    value {
      type: DT_FLOAT
    }
  }
  attr {
    key: "data_format"
    value {
      s: "NHWC"
    }
  }
  attr {
    key: "dilations"
    value {
      list {
        i: 1
        i: 1
        i: 1
        i: 1
      }
    }
  }
  attr {
    key: "explicit_paddings"
    value {
      list {
      }
    }
  }
  attr {
    key: "padding"
    value {
      s: "SAME"
    }
  }
  attr {
    key: "strides"
    value {
      list {
        i: 1
        i: 1
        i: 1
        i: 1
      }
    }
  }
  attr {
    key: "use_cudnn_on_gpu"
    value {
      b: true
    }
  }
}
node {
  name: "SASFieldNet/f_conv2/BatchNorm/Const"
  op: "Const"
  attr {
    key: "dtype"
    value {
      type: DT_FLOAT
    }
  }
  attr {
    key: "value"
    value {
      tensor {
        dtype: DT_FLOAT
        tensor_shape {
          dim {
            size: 32
          }
        }
        float_val: 1.0
      }
    }
  }
}
node {
  name: "SASFieldNet/f_conv2/BatchNorm/beta/Initializer/zeros"
  op: "Const"
  attr {
    key: "_class"
    value {
      list {
        s: "loc:@SASFieldNet/f_conv2/BatchNorm/beta"
      }
    }
  }
  attr {
    key: "dtype"
    value {
      type: DT_FLOAT
    }
  }
  attr {
    key: "value"
    value {
      tensor {
        dtype: DT_FLOAT
        tensor_shape {
          dim {
            size: 32
          }
        }
        float_val: 0.0
      }
    }
  }
}
node {
  name: "SASFieldNet/f_conv2/BatchNorm/beta"
  op: "VarHandleOp"
  attr {
    key: "_class"
    value {
      list {
        s: "loc:@SASFieldNet/f_conv2/BatchNorm/beta"
      }
    }
  }
  attr {
    key: "allowed_devices"
    value {
      list {
      }
    }
  }
  attr {
    key: "container"
    value {
      s: ""
    }
  }
  attr {
    key: "dtype"
    value {
      type: DT_FLOAT
    }
  }
  attr {
    key: "shape"
    value {
      shape {
        dim {
          size: 32
        }
      }
    }
  }
  attr {
    key: "shared_name"
    value {
      s: "SASFieldNet/f_conv2/BatchNorm/beta"
    }
  }
}
node {
  name: "SASFieldNet/f_conv2/BatchNorm/beta/IsInitialized/VarIsInitializedOp"
  op: "VarIsInitializedOp"
  input: "SASFieldNet/f_conv2/BatchNorm/beta"
}
node {
  name: "SASFieldNet/f_conv2/BatchNorm/beta/Assign"
  op: "AssignVariableOp"
  input: "SASFieldNet/f_conv2/BatchNorm/beta"
  input: "SASFieldNet/f_conv2/BatchNorm/beta/Initializer/zeros"
  attr {
    key: "dtype"
    value {
      type: DT_FLOAT
    }
  }
}
node {
  name: "SASFieldNet/f_conv2/BatchNorm/beta/Read/ReadVariableOp"
  op: "ReadVariableOp"
  input: "SASFieldNet/f_conv2/BatchNorm/beta"
  attr {
    key: "dtype"
    value {
      type: DT_FLOAT
    }
  }
}
node {
  name: "SASFieldNet/f_conv2/BatchNorm/moving_mean/Initializer/zeros"
  op: "Const"
  attr {
    key: "_class"
    value {
      list {
        s: "loc:@SASFieldNet/f_conv2/BatchNorm/moving_mean"
      }
    }
  }
  attr {
    key: "dtype"
    value {
      type: DT_FLOAT
    }
  }
  attr {
    key: "value"
    value {
      tensor {
        dtype: DT_FLOAT
        tensor_shape {
          dim {
            size: 32
          }
        }
        float_val: 0.0
      }
    }
  }
}
node {
  name: "SASFieldNet/f_conv2/BatchNorm/moving_mean"
  op: "VarHandleOp"
  attr {
    key: "_class"
    value {
      list {
        s: "loc:@SASFieldNet/f_conv2/BatchNorm/moving_mean"
      }
    }
  }
  attr {
    key: "allowed_devices"
    value {
      list {
      }
    }
  }
  attr {
    key: "container"
    value {
      s: ""
    }
  }
  attr {
    key: "dtype"
    value {
      type: DT_FLOAT
    }
  }
  attr {
    key: "shape"
    value {
      shape {
        dim {
          size: 32
        }
      }
    }
  }
  attr {
    key: "shared_name"
    value {
      s: "SASFieldNet/f_conv2/BatchNorm/moving_mean"
    }
  }
}
node {
  name: "SASFieldNet/f_conv2/BatchNorm/moving_mean/IsInitialized/VarIsInitializedOp"
  op: "VarIsInitializedOp"
  input: "SASFieldNet/f_conv2/BatchNorm/moving_mean"
}
node {
  name: "SASFieldNet/f_conv2/BatchNorm/moving_mean/Assign"
  op: "AssignVariableOp"
  input: "SASFieldNet/f_conv2/BatchNorm/moving_mean"
  input: "SASFieldNet/f_conv2/BatchNorm/moving_mean/Initializer/zeros"
  attr {
    key: "dtype"
    value {
      type: DT_FLOAT
    }
  }
}
node {
  name: "SASFieldNet/f_conv2/BatchNorm/moving_mean/Read/ReadVariableOp"
  op: "ReadVariableOp"
  input: "SASFieldNet/f_conv2/BatchNorm/moving_mean"
  attr {
    key: "dtype"
    value {
      type: DT_FLOAT
    }
  }
}
node {
  name: "SASFieldNet/f_conv2/BatchNorm/moving_variance/Initializer/ones"
  op: "Const"
  attr {
    key: "_class"
    value {
      list {
        s: "loc:@SASFieldNet/f_conv2/BatchNorm/moving_variance"
      }
    }
  }
  attr {
    key: "dtype"
    value {
      type: DT_FLOAT
    }
  }
  attr {
    key: "value"
    value {
      tensor {
        dtype: DT_FLOAT
        tensor_shape {
          dim {
            size: 32
          }
        }
        float_val: 1.0
      }
    }
  }
}
node {
  name: "SASFieldNet/f_conv2/BatchNorm/moving_variance"
  op: "VarHandleOp"
  attr {
    key: "_class"
    value {
      list {
        s: "loc:@SASFieldNet/f_conv2/BatchNorm/moving_variance"
      }
    }
  }
  attr {
    key: "allowed_devices"
    value {
      list {
      }
    }
  }
  attr {
    key: "container"
    value {
      s: ""
    }
  }
  attr {
    key: "dtype"
    value {
      type: DT_FLOAT
    }
  }
  attr {
    key: "shape"
    value {
      shape {
        dim {
          size: 32
        }
      }
    }
  }
  attr {
    key: "shared_name"
    value {
      s: "SASFieldNet/f_conv2/BatchNorm/moving_variance"
    }
  }
}
node {
  name: "SASFieldNet/f_conv2/BatchNorm/moving_variance/IsInitialized/VarIsInitializedOp"
  op: "VarIsInitializedOp"
  input: "SASFieldNet/f_conv2/BatchNorm/moving_variance"
}
node {
  name: "SASFieldNet/f_conv2/BatchNorm/moving_variance/Assign"
  op: "AssignVariableOp"
  input: "SASFieldNet/f_conv2/BatchNorm/moving_variance"
  input: "SASFieldNet/f_conv2/BatchNorm/moving_variance/Initializer/ones"
  attr {
    key: "dtype"
    value {
      type: DT_FLOAT
    }
  }
}
node {
  name: "SASFieldNet/f_conv2/BatchNorm/moving_variance/Read/ReadVariableOp"
  op: "ReadVariableOp"
  input: "SASFieldNet/f_conv2/BatchNorm/moving_variance"
  attr {
    key: "dtype"
    value {
      type: DT_FLOAT
    }
  }
}
node {
  name: "SASFieldNet/f_conv2/BatchNorm/ReadVariableOp"
  op: "ReadVariableOp"
  input: "SASFieldNet/f_conv2/BatchNorm/beta"
  attr {
    key: "dtype"
    value {
      type: DT_FLOAT
    }
  }
}
node {
  name: "SASFieldNet/f_conv2/BatchNorm/FusedBatchNormV3/ReadVariableOp"
  op: "ReadVariableOp"
  input: "SASFieldNet/f_conv2/BatchNorm/moving_mean"
  attr {
    key: "dtype"
    value {
      type: DT_FLOAT
    }
  }
}
node {
  name: "SASFieldNet/f_conv2/BatchNorm/FusedBatchNormV3/ReadVariableOp_1"
  op: "ReadVariableOp"
  input: "SASFieldNet/f_conv2/BatchNorm/moving_variance"
  attr {
    key: "dtype"
    value {
      type: DT_FLOAT
    }
  }
}
node {
  name: "SASFieldNet/f_conv2/BatchNorm/FusedBatchNormV3"
  op: "FusedBatchNormV3"
  input: "SASFieldNet/f_conv2/Conv2D"
  input: "SASFieldNet/f_conv2/BatchNorm/Const"
  input: "SASFieldNet/f_conv2/BatchNorm/ReadVariableOp"
  input: "SASFieldNet/f_conv2/BatchNorm/FusedBatchNormV3/ReadVariableOp"
  input: "SASFieldNet/f_conv2/BatchNorm/FusedBatchNormV3/ReadVariableOp_1"
  attr {
    key: "T"
    value {
      type: DT_FLOAT
    }
  }
  attr {
    key: "U"
    value {
      type: DT_FLOAT
    }
  }
  attr {
    key: "data_format"
    value {
      s: "NHWC"
    }
  }
  attr {
    key: "epsilon"
    value {
      f: 0.0010000000474974513
    }
  }
  attr {
    key: "exponential_avg_factor"
    value {
      f: 1.0
    }
  }
  attr {
    key: "is_training"
    value {
      b: false
    }
  }
}
node {
  name: "SASFieldNet/f_conv2/Relu"
  op: "Relu"
  input: "SASFieldNet/f_conv2/BatchNorm/FusedBatchNormV3"
  attr {
    key: "T"
    value {
      type: DT_FLOAT
    }
  }
}
node {
  name: "SASFieldNet/f_pool1/MaxPool"
  op: "MaxPool"
  input: "SASFieldNet/f_conv2/Relu"
  attr {
    key: "T"
    value {
      type: DT_FLOAT
    }
  }
  attr {
    key: "data_format"
    value {
      s: "NHWC"
    }
  }
  attr {
    key: "explicit_paddings"
    value {
      list {
      }
    }
  }
  attr {
    key: "ksize"
    value {
      list {
        i: 1
        i: 2
        i: 2
        i: 1
      }
    }
  }
  attr {
    key: "padding"
    value {
      s: "VALID"
    }
  }
  attr {
    key: "strides"
    value {
      list {
        i: 1
        i: 2
        i: 2
        i: 1
      }
    }
  }
}
node {
  name: "SASFieldNet/f_conv3/weights/Initializer/truncated_normal/shape"
  op: "Const"
  attr {
    key: "_class"
    value {
      list {
        s: "loc:@SASFieldNet/f_conv3/weights"
      }
    }
  }
  attr {
    key: "dtype"
    value {
      type: DT_INT32
    }
  }
  attr {
    key: "value"
    value {
      tensor {
        dtype: DT_INT32
        tensor_shape {
          dim {
            size: 4
          }
        }
        tensor_content: "\003\000\000\000\003\000\000\000 \000\000\000@\000\000\000"
      }
    }
  }
}
node {
  name: "SASFieldNet/f_conv3/weights/Initializer/truncated_normal/mean"
  op: "Const"
  attr {
    key: "_class"
    value {
      list {
        s: "loc:@SASFieldNet/f_conv3/weights"
      }
    }
  }
  attr {
    key: "dtype"
    value {
      type: DT_FLOAT
    }
  }
  attr {
    key: "value"
    value {
      tensor {
        dtype: DT_FLOAT
        tensor_shape {
        }
        float_val: 0.0
      }
    }
  }
}
node {
  name: "SASFieldNet/f_conv3/weights/Initializer/truncated_normal/stddev"
  op: "Const"
  attr {
    key: "_class"
    value {
      list {
        s: "loc:@SASFieldNet/f_conv3/weights"
      }
    }
  }
  attr {
    key: "dtype"
    value {
      type: DT_FLOAT
    }
  }
  attr {
    key: "value"
    value {
      tensor {
        dtype: DT_FLOAT
        tensor_shape {
        }
        float_val: 0.009999999776482582
      }
    }
  }
}
node {
  name: "SASFieldNet/f_conv3/weights/Initializer/truncated_normal/TruncatedNormal"
  op: "TruncatedNormal"
  input: "SASFieldNet/f_conv3/weights/Initializer/truncated_normal/shape"
  attr {
    key: "T"
    value {
      type: DT_INT32
    }
  }
  attr {
    key: "_class"
    value {
      list {
        s: "loc:@SASFieldNet/f_conv3/weights"
      }
    }
  }
  attr {
    key: "dtype"
    value {
      type: DT_FLOAT
    }
  }
  attr {
    key: "seed"
    value {
      i: 0
    }
  }
  attr {
    key: "seed2"
    value {
      i: 0
    }
  }
}
node {
  name: "SASFieldNet/f_conv3/weights/Initializer/truncated_normal/mul"
  op: "Mul"
  input: "SASFieldNet/f_conv3/weights/Initializer/truncated_normal/TruncatedNormal"
  input: "SASFieldNet/f_conv3/weights/Initializer/truncated_normal/stddev"
  attr {
    key: "T"
    value {
      type: DT_FLOAT
    }
  }
  attr {
    key: "_class"
    value {
      list {
        s: "loc:@SASFieldNet/f_conv3/weights"
      }
    }
  }
}
node {
  name: "SASFieldNet/f_conv3/weights/Initializer/truncated_normal"
  op: "AddV2"
  input: "SASFieldNet/f_conv3/weights/Initializer/truncated_normal/mul"
  input: "SASFieldNet/f_conv3/weights/Initializer/truncated_normal/mean"
  attr {
    key: "T"
    value {
      type: DT_FLOAT
    }
  }
  attr {
    key: "_class"
    value {
      list {
        s: "loc:@SASFieldNet/f_conv3/weights"
      }
    }
  }
}
node {
  name: "SASFieldNet/f_conv3/weights"
  op: "VarHandleOp"
  attr {
    key: "_class"
    value {
      list {
        s: "loc:@SASFieldNet/f_conv3/weights"
      }
    }
  }
  attr {
    key: "allowed_devices"
    value {
      list {
      }
    }
  }
  attr {
    key: "container"
    value {
      s: ""
    }
  }
  attr {
    key: "dtype"
    value {
      type: DT_FLOAT
    }
  }
  attr {
    key: "shape"
    value {
      shape {
        dim {
          size: 3
        }
        dim {
          size: 3
        }
        dim {
          size: 32
        }
        dim {
          size: 64
        }
      }
    }
  }
  attr {
    key: "shared_name"
    value {
      s: "SASFieldNet/f_conv3/weights"
    }
  }
}
node {
  name: "SASFieldNet/f_conv3/weights/IsInitialized/VarIsInitializedOp"
  op: "VarIsInitializedOp"
  input: "SASFieldNet/f_conv3/weights"
}
node {
  name: "SASFieldNet/f_conv3/weights/Assign"
  op: "AssignVariableOp"
  input: "SASFieldNet/f_conv3/weights"
  input: "SASFieldNet/f_conv3/weights/Initializer/truncated_normal"
  attr {
    key: "dtype"
    value {
      type: DT_FLOAT
    }
  }
}
node {
  name: "SASFieldNet/f_conv3/weights/Read/ReadVariableOp"
  op: "ReadVariableOp"
  input: "SASFieldNet/f_conv3/weights"
  attr {
    key: "dtype"
    value {
      type: DT_FLOAT
    }
  }
}
node {
  name: "SASFieldNet/f_conv3/kernel/Regularizer/Square/ReadVariableOp"
  op: "ReadVariableOp"
  input: "SASFieldNet/f_conv3/weights"
  attr {
    key: "dtype"
    value {
      type: DT_FLOAT
    }
  }
}
node {
  name: "SASFieldNet/f_conv3/kernel/Regularizer/Square"
  op: "Square"
  input: "SASFieldNet/f_conv3/kernel/Regularizer/Square/ReadVariableOp"
  attr {
    key: "T"
    value {
      type: DT_FLOAT
    }
  }
}
node {
  name: "SASFieldNet/f_conv3/kernel/Regularizer/Const"
  op: "Const"
  attr {
    key: "dtype"
    value {
      type: DT_INT32
    }
  }
  attr {
    key: "value"
    value {
      tensor {
        dtype: DT_INT32
        tensor_shape {
          dim {
            size: 4
          }
        }
        tensor_content: "\000\000\000\000\001\000\000\000\002\000\000\000\003\000\000\000"
      }
    }
  }
}
node {
  name: "SASFieldNet/f_conv3/kernel/Regularizer/Sum"
  op: "Sum"
  input: "SASFieldNet/f_conv3/kernel/Regularizer/Square"
  input: "SASFieldNet/f_conv3/kernel/Regularizer/Const"
  attr {
    key: "T"
    value {
      type: DT_FLOAT
    }
  }
  attr {
    key: "Tidx"
    value {
      type: DT_INT32
    }
  }
  attr {
    key: "keep_dims"
    value {
      b: false
    }
  }
}
node {
  name: "SASFieldNet/f_conv3/kernel/Regularizer/mul/x"
  op: "Const"
  attr {
    key: "dtype"
    value {
      type: DT_FLOAT
    }
  }
  attr {
    key: "value"
    value {
      tensor {
        dtype: DT_FLOAT
        tensor_shape {
        }
        float_val: 0.0002500000118743628
      }
    }
  }
}
node {
  name: "SASFieldNet/f_conv3/kernel/Regularizer/mul"
  op: "Mul"
  input: "SASFieldNet/f_conv3/kernel/Regularizer/mul/x"
  input: "SASFieldNet/f_conv3/kernel/Regularizer/Sum"
  attr {
    key: "T"
    value {
      type: DT_FLOAT
    }
  }
}
node {
  name: "SASFieldNet/f_conv3/Conv2D/ReadVariableOp"
  op: "ReadVariableOp"
  input: "SASFieldNet/f_conv3/weights"
  attr {
    key: "dtype"
    value {
      type: DT_FLOAT
    }
  }
}
node {
  name: "SASFieldNet/f_conv3/Conv2D"
  op: "Conv2D"
  input: "SASFieldNet/f_pool1/MaxPool"
  input: "SASFieldNet/f_conv3/Conv2D/ReadVariableOp"
  attr {
    key: "T"
    value {
      type: DT_FLOAT
    }
  }
  attr {
    key: "data_format"
    value {
      s: "NHWC"
    }
  }
  attr {
    key: "dilations"
    value {
      list {
        i: 1
        i: 1
        i: 1
        i: 1
      }
    }
  }
  attr {
    key: "explicit_paddings"
    value {
      list {
      }
    }
  }
  attr {
    key: "padding"
    value {
      s: "SAME"
    }
  }
  attr {
    key: "strides"
    value {
      list {
        i: 1
        i: 1
        i: 1
        i: 1
      }
    }
  }
  attr {
    key: "use_cudnn_on_gpu"
    value {
      b: true
    }
  }
}
node {
  name: "SASFieldNet/f_conv3/BatchNorm/Const"
  op: "Const"
  attr {
    key: "dtype"
    value {
      type: DT_FLOAT
    }
  }
  attr {
    key: "value"
    value {
      tensor {
        dtype: DT_FLOAT
        tensor_shape {
          dim {
            size: 64
          }
        }
        float_val: 1.0
      }
    }
  }
}
node {
  name: "SASFieldNet/f_conv3/BatchNorm/beta/Initializer/zeros"
  op: "Const"
  attr {
    key: "_class"
    value {
      list {
        s: "loc:@SASFieldNet/f_conv3/BatchNorm/beta"
      }
    }
  }
  attr {
    key: "dtype"
    value {
      type: DT_FLOAT
    }
  }
  attr {
    key: "value"
    value {
      tensor {
        dtype: DT_FLOAT
        tensor_shape {
          dim {
            size: 64
          }
        }
        float_val: 0.0
      }
    }
  }
}
node {
  name: "SASFieldNet/f_conv3/BatchNorm/beta"
  op: "VarHandleOp"
  attr {
    key: "_class"
    value {
      list {
        s: "loc:@SASFieldNet/f_conv3/BatchNorm/beta"
      }
    }
  }
  attr {
    key: "allowed_devices"
    value {
      list {
      }
    }
  }
  attr {
    key: "container"
    value {
      s: ""
    }
  }
  attr {
    key: "dtype"
    value {
      type: DT_FLOAT
    }
  }
  attr {
    key: "shape"
    value {
      shape {
        dim {
          size: 64
        }
      }
    }
  }
  attr {
    key: "shared_name"
    value {
      s: "SASFieldNet/f_conv3/BatchNorm/beta"
    }
  }
}
node {
  name: "SASFieldNet/f_conv3/BatchNorm/beta/IsInitialized/VarIsInitializedOp"
  op: "VarIsInitializedOp"
  input: "SASFieldNet/f_conv3/BatchNorm/beta"
}
node {
  name: "SASFieldNet/f_conv3/BatchNorm/beta/Assign"
  op: "AssignVariableOp"
  input: "SASFieldNet/f_conv3/BatchNorm/beta"
  input: "SASFieldNet/f_conv3/BatchNorm/beta/Initializer/zeros"
  attr {
    key: "dtype"
    value {
      type: DT_FLOAT
    }
  }
}
node {
  name: "SASFieldNet/f_conv3/BatchNorm/beta/Read/ReadVariableOp"
  op: "ReadVariableOp"
  input: "SASFieldNet/f_conv3/BatchNorm/beta"
  attr {
    key: "dtype"
    value {
      type: DT_FLOAT
    }
  }
}
node {
  name: "SASFieldNet/f_conv3/BatchNorm/moving_mean/Initializer/zeros"
  op: "Const"
  attr {
    key: "_class"
    value {
      list {
        s: "loc:@SASFieldNet/f_conv3/BatchNorm/moving_mean"
      }
    }
  }
  attr {
    key: "dtype"
    value {
      type: DT_FLOAT
    }
  }
  attr {
    key: "value"
    value {
      tensor {
        dtype: DT_FLOAT
        tensor_shape {
          dim {
            size: 64
          }
        }
        float_val: 0.0
      }
    }
  }
}
node {
  name: "SASFieldNet/f_conv3/BatchNorm/moving_mean"
  op: "VarHandleOp"
  attr {
    key: "_class"
    value {
      list {
        s: "loc:@SASFieldNet/f_conv3/BatchNorm/moving_mean"
      }
    }
  }
  attr {
    key: "allowed_devices"
    value {
      list {
      }
    }
  }
  attr {
    key: "container"
    value {
      s: ""
    }
  }
  attr {
    key: "dtype"
    value {
      type: DT_FLOAT
    }
  }
  attr {
    key: "shape"
    value {
      shape {
        dim {
          size: 64
        }
      }
    }
  }
  attr {
    key: "shared_name"
    value {
      s: "SASFieldNet/f_conv3/BatchNorm/moving_mean"
    }
  }
}
node {
  name: "SASFieldNet/f_conv3/BatchNorm/moving_mean/IsInitialized/VarIsInitializedOp"
  op: "VarIsInitializedOp"
  input: "SASFieldNet/f_conv3/BatchNorm/moving_mean"
}
node {
  name: "SASFieldNet/f_conv3/BatchNorm/moving_mean/Assign"
  op: "AssignVariableOp"
  input: "SASFieldNet/f_conv3/BatchNorm/moving_mean"
  input: "SASFieldNet/f_conv3/BatchNorm/moving_mean/Initializer/zeros"
  attr {
    key: "dtype"
    value {
      type: DT_FLOAT
    }
  }
}
node {
  name: "SASFieldNet/f_conv3/BatchNorm/moving_mean/Read/ReadVariableOp"
  op: "ReadVariableOp"
  input: "SASFieldNet/f_conv3/BatchNorm/moving_mean"
  attr {
    key: "dtype"
    value {
      type: DT_FLOAT
    }
  }
}
node {
  name: "SASFieldNet/f_conv3/BatchNorm/moving_variance/Initializer/ones"
  op: "Const"
  attr {
    key: "_class"
    value {
      list {
        s: "loc:@SASFieldNet/f_conv3/BatchNorm/moving_variance"
      }
    }
  }
  attr {
    key: "dtype"
    value {
      type: DT_FLOAT
    }
  }
  attr {
    key: "value"
    value {
      tensor {
        dtype: DT_FLOAT
        tensor_shape {
          dim {
            size: 64
          }
        }
        float_val: 1.0
      }
    }
  }
}
node {
  name: "SASFieldNet/f_conv3/BatchNorm/moving_variance"
  op: "VarHandleOp"
  attr {
    key: "_class"
    value {
      list {
        s: "loc:@SASFieldNet/f_conv3/BatchNorm/moving_variance"
      }
    }
  }
  attr {
    key: "allowed_devices"
    value {
      list {
      }
    }
  }
  attr {
    key: "container"
    value {
      s: ""
    }
  }
  attr {
    key: "dtype"
    value {
      type: DT_FLOAT
    }
  }
  attr {
    key: "shape"
    value {
      shape {
        dim {
          size: 64
        }
      }
    }
  }
  attr {
    key: "shared_name"
    value {
      s: "SASFieldNet/f_conv3/BatchNorm/moving_variance"
    }
  }
}
node {
  name: "SASFieldNet/f_conv3/BatchNorm/moving_variance/IsInitialized/VarIsInitializedOp"
  op: "VarIsInitializedOp"
  input: "SASFieldNet/f_conv3/BatchNorm/moving_variance"
}
node {
  name: "SASFieldNet/f_conv3/BatchNorm/moving_variance/Assign"
  op: "AssignVariableOp"
  input: "SASFieldNet/f_conv3/BatchNorm/moving_variance"
  input: "SASFieldNet/f_conv3/BatchNorm/moving_variance/Initializer/ones"
  attr {
    key: "dtype"
    value {
      type: DT_FLOAT
    }
  }
}
node {
  name: "SASFieldNet/f_conv3/BatchNorm/moving_variance/Read/ReadVariableOp"
  op: "ReadVariableOp"
  input: "SASFieldNet/f_conv3/BatchNorm/moving_variance"
  attr {
    key: "dtype"
    value {
      type: DT_FLOAT
    }
  }
}
node {
  name: "SASFieldNet/f_conv3/BatchNorm/ReadVariableOp"
  op: "ReadVariableOp"
  input: "SASFieldNet/f_conv3/BatchNorm/beta"
  attr {
    key: "dtype"
    value {
      type: DT_FLOAT
    }
  }
}
node {
  name: "SASFieldNet/f_conv3/BatchNorm/FusedBatchNormV3/ReadVariableOp"
  op: "ReadVariableOp"
  input: "SASFieldNet/f_conv3/BatchNorm/moving_mean"
  attr {
    key: "dtype"
    value {
      type: DT_FLOAT
    }
  }
}
node {
  name: "SASFieldNet/f_conv3/BatchNorm/FusedBatchNormV3/ReadVariableOp_1"
  op: "ReadVariableOp"
  input: "SASFieldNet/f_conv3/BatchNorm/moving_variance"
  attr {
    key: "dtype"
    value {
      type: DT_FLOAT
    }
  }
}
node {
  name: "SASFieldNet/f_conv3/BatchNorm/FusedBatchNormV3"
  op: "FusedBatchNormV3"
  input: "SASFieldNet/f_conv3/Conv2D"
  input: "SASFieldNet/f_conv3/BatchNorm/Const"
  input: "SASFieldNet/f_conv3/BatchNorm/ReadVariableOp"
  input: "SASFieldNet/f_conv3/BatchNorm/FusedBatchNormV3/ReadVariableOp"
  input: "SASFieldNet/f_conv3/BatchNorm/FusedBatchNormV3/ReadVariableOp_1"
  attr {
    key: "T"
    value {
      type: DT_FLOAT
    }
  }
  attr {
    key: "U"
    value {
      type: DT_FLOAT
    }
  }
  attr {
    key: "data_format"
    value {
      s: "NHWC"
    }
  }
  attr {
    key: "epsilon"
    value {
      f: 0.0010000000474974513
    }
  }
  attr {
    key: "exponential_avg_factor"
    value {
      f: 1.0
    }
  }
  attr {
    key: "is_training"
    value {
      b: false
    }
  }
}
node {
  name: "SASFieldNet/f_conv3/Relu"
  op: "Relu"
  input: "SASFieldNet/f_conv3/BatchNorm/FusedBatchNormV3"
  attr {
    key: "T"
    value {
      type: DT_FLOAT
    }
  }
}
node {
  name: "SASFieldNet/f_conv4/weights/Initializer/truncated_normal/shape"
  op: "Const"
  attr {
    key: "_class"
    value {
      list {
        s: "loc:@SASFieldNet/f_conv4/weights"
      }
    }
  }
  attr {
    key: "dtype"
    value {
      type: DT_INT32
    }
  }
  attr {
    key: "value"
    value {
      tensor {
        dtype: DT_INT32
        tensor_shape {
          dim {
            size: 4
          }
        }
        tensor_content: "\003\000\000\000\003\000\000\000@\000\000\000@\000\000\000"
      }
    }
  }
}
node {
  name: "SASFieldNet/f_conv4/weights/Initializer/truncated_normal/mean"
  op: "Const"
  attr {
    key: "_class"
    value {
      list {
        s: "loc:@SASFieldNet/f_conv4/weights"
      }
    }
  }
  attr {
    key: "dtype"
    value {
      type: DT_FLOAT
    }
  }
  attr {
    key: "value"
    value {
      tensor {
        dtype: DT_FLOAT
        tensor_shape {
        }
        float_val: 0.0
      }
    }
  }
}
node {
  name: "SASFieldNet/f_conv4/weights/Initializer/truncated_normal/stddev"
  op: "Const"
  attr {
    key: "_class"
    value {
      list {
        s: "loc:@SASFieldNet/f_conv4/weights"
      }
    }
  }
  attr {
    key: "dtype"
    value {
      type: DT_FLOAT
    }
  }
  attr {
    key: "value"
    value {
      tensor {
        dtype: DT_FLOAT
        tensor_shape {
        }
        float_val: 0.009999999776482582
      }
    }
  }
}
node {
  name: "SASFieldNet/f_conv4/weights/Initializer/truncated_normal/TruncatedNormal"
  op: "TruncatedNormal"
  input: "SASFieldNet/f_conv4/weights/Initializer/truncated_normal/shape"
  attr {
    key: "T"
    value {
      type: DT_INT32
    }
  }
  attr {
    key: "_class"
    value {
      list {
        s: "loc:@SASFieldNet/f_conv4/weights"
      }
    }
  }
  attr {
    key: "dtype"
    value {
      type: DT_FLOAT
    }
  }
  attr {
    key: "seed"
    value {
      i: 0
    }
  }
  attr {
    key: "seed2"
    value {
      i: 0
    }
  }
}
node {
  name: "SASFieldNet/f_conv4/weights/Initializer/truncated_normal/mul"
  op: "Mul"
  input: "SASFieldNet/f_conv4/weights/Initializer/truncated_normal/TruncatedNormal"
  input: "SASFieldNet/f_conv4/weights/Initializer/truncated_normal/stddev"
  attr {
    key: "T"
    value {
      type: DT_FLOAT
    }
  }
  attr {
    key: "_class"
    value {
      list {
        s: "loc:@SASFieldNet/f_conv4/weights"
      }
    }
  }
}
node {
  name: "SASFieldNet/f_conv4/weights/Initializer/truncated_normal"
  op: "AddV2"
  input: "SASFieldNet/f_conv4/weights/Initializer/truncated_normal/mul"
  input: "SASFieldNet/f_conv4/weights/Initializer/truncated_normal/mean"
  attr {
    key: "T"
    value {
      type: DT_FLOAT
    }
  }
  attr {
    key: "_class"
    value {
      list {
        s: "loc:@SASFieldNet/f_conv4/weights"
      }
    }
  }
}
node {
  name: "SASFieldNet/f_conv4/weights"
  op: "VarHandleOp"
  attr {
    key: "_class"
    value {
      list {
        s: "loc:@SASFieldNet/f_conv4/weights"
      }
    }
  }
  attr {
    key: "allowed_devices"
    value {
      list {
      }
    }
  }
  attr {
    key: "container"
    value {
      s: ""
    }
  }
  attr {
    key: "dtype"
    value {
      type: DT_FLOAT
    }
  }
  attr {
    key: "shape"
    value {
      shape {
        dim {
          size: 3
        }
        dim {
          size: 3
        }
        dim {
          size: 64
        }
        dim {
          size: 64
        }
      }
    }
  }
  attr {
    key: "shared_name"
    value {
      s: "SASFieldNet/f_conv4/weights"
    }
  }
}
node {
  name: "SASFieldNet/f_conv4/weights/IsInitialized/VarIsInitializedOp"
  op: "VarIsInitializedOp"
  input: "SASFieldNet/f_conv4/weights"
}
node {
  name: "SASFieldNet/f_conv4/weights/Assign"
  op: "AssignVariableOp"
  input: "SASFieldNet/f_conv4/weights"
  input: "SASFieldNet/f_conv4/weights/Initializer/truncated_normal"
  attr {
    key: "dtype"
    value {
      type: DT_FLOAT
    }
  }
}
node {
  name: "SASFieldNet/f_conv4/weights/Read/ReadVariableOp"
  op: "ReadVariableOp"
  input: "SASFieldNet/f_conv4/weights"
  attr {
    key: "dtype"
    value {
      type: DT_FLOAT
    }
  }
}
node {
  name: "SASFieldNet/f_conv4/kernel/Regularizer/Square/ReadVariableOp"
  op: "ReadVariableOp"
  input: "SASFieldNet/f_conv4/weights"
  attr {
    key: "dtype"
    value {
      type: DT_FLOAT
    }
  }
}
node {
  name: "SASFieldNet/f_conv4/kernel/Regularizer/Square"
  op: "Square"
  input: "SASFieldNet/f_conv4/kernel/Regularizer/Square/ReadVariableOp"
  attr {
    key: "T"
    value {
      type: DT_FLOAT
    }
  }
}
node {
  name: "SASFieldNet/f_conv4/kernel/Regularizer/Const"
  op: "Const"
  attr {
    key: "dtype"
    value {
      type: DT_INT32
    }
  }
  attr {
    key: "value"
    value {
      tensor {
        dtype: DT_INT32
        tensor_shape {
          dim {
            size: 4
          }
        }
        tensor_content: "\000\000\000\000\001\000\000\000\002\000\000\000\003\000\000\000"
      }
    }
  }
}
node {
  name: "SASFieldNet/f_conv4/kernel/Regularizer/Sum"
  op: "Sum"
  input: "SASFieldNet/f_conv4/kernel/Regularizer/Square"
  input: "SASFieldNet/f_conv4/kernel/Regularizer/Const"
  attr {
    key: "T"
    value {
      type: DT_FLOAT
    }
  }
  attr {
    key: "Tidx"
    value {
      type: DT_INT32
    }
  }
  attr {
    key: "keep_dims"
    value {
      b: false
    }
  }
}
node {
  name: "SASFieldNet/f_conv4/kernel/Regularizer/mul/x"
  op: "Const"
  attr {
    key: "dtype"
    value {
      type: DT_FLOAT
    }
  }
  attr {
    key: "value"
    value {
      tensor {
        dtype: DT_FLOAT
        tensor_shape {
        }
        float_val: 0.0002500000118743628
      }
    }
  }
}
node {
  name: "SASFieldNet/f_conv4/kernel/Regularizer/mul"
  op: "Mul"
  input: "SASFieldNet/f_conv4/kernel/Regularizer/mul/x"
  input: "SASFieldNet/f_conv4/kernel/Regularizer/Sum"
  attr {
    key: "T"
    value {
      type: DT_FLOAT
    }
  }
}
node {
  name: "SASFieldNet/f_conv4/Conv2D/ReadVariableOp"
  op: "ReadVariableOp"
  input: "SASFieldNet/f_conv4/weights"
  attr {
    key: "dtype"
    value {
      type: DT_FLOAT
    }
  }
}
node {
  name: "SASFieldNet/f_conv4/Conv2D"
  op: "Conv2D"
  input: "SASFieldNet/f_conv3/Relu"
  input: "SASFieldNet/f_conv4/Conv2D/ReadVariableOp"
  attr {
    key: "T"
    value {
      type: DT_FLOAT
    }
  }
  attr {
    key: "data_format"
    value {
      s: "NHWC"
    }
  }
  attr {
    key: "dilations"
    value {
      list {
        i: 1
        i: 1
        i: 1
        i: 1
      }
    }
  }
  attr {
    key: "explicit_paddings"
    value {
      list {
      }
    }
  }
  attr {
    key: "padding"
    value {
      s: "SAME"
    }
  }
  attr {
    key: "strides"
    value {
      list {
        i: 1
        i: 1
        i: 1
        i: 1
      }
    }
  }
  attr {
    key: "use_cudnn_on_gpu"
    value {
      b: true
    }
  }
}
node {
  name: "SASFieldNet/f_conv4/BatchNorm/Const"
  op: "Const"
  attr {
    key: "dtype"
    value {
      type: DT_FLOAT
    }
  }
  attr {
    key: "value"
    value {
      tensor {
        dtype: DT_FLOAT
        tensor_shape {
          dim {
            size: 64
          }
        }
        float_val: 1.0
      }
    }
  }
}
node {
  name: "SASFieldNet/f_conv4/BatchNorm/beta/Initializer/zeros"
  op: "Const"
  attr {
    key: "_class"
    value {
      list {
        s: "loc:@SASFieldNet/f_conv4/BatchNorm/beta"
      }
    }
  }
  attr {
    key: "dtype"
    value {
      type: DT_FLOAT
    }
  }
  attr {
    key: "value"
    value {
      tensor {
        dtype: DT_FLOAT
        tensor_shape {
          dim {
            size: 64
          }
        }
        float_val: 0.0
      }
    }
  }
}
node {
  name: "SASFieldNet/f_conv4/BatchNorm/beta"
  op: "VarHandleOp"
  attr {
    key: "_class"
    value {
      list {
        s: "loc:@SASFieldNet/f_conv4/BatchNorm/beta"
      }
    }
  }
  attr {
    key: "allowed_devices"
    value {
      list {
      }
    }
  }
  attr {
    key: "container"
    value {
      s: ""
    }
  }
  attr {
    key: "dtype"
    value {
      type: DT_FLOAT
    }
  }
  attr {
    key: "shape"
    value {
      shape {
        dim {
          size: 64
        }
      }
    }
  }
  attr {
    key: "shared_name"
    value {
      s: "SASFieldNet/f_conv4/BatchNorm/beta"
    }
  }
}
node {
  name: "SASFieldNet/f_conv4/BatchNorm/beta/IsInitialized/VarIsInitializedOp"
  op: "VarIsInitializedOp"
  input: "SASFieldNet/f_conv4/BatchNorm/beta"
}
node {
  name: "SASFieldNet/f_conv4/BatchNorm/beta/Assign"
  op: "AssignVariableOp"
  input: "SASFieldNet/f_conv4/BatchNorm/beta"
  input: "SASFieldNet/f_conv4/BatchNorm/beta/Initializer/zeros"
  attr {
    key: "dtype"
    value {
      type: DT_FLOAT
    }
  }
}
node {
  name: "SASFieldNet/f_conv4/BatchNorm/beta/Read/ReadVariableOp"
  op: "ReadVariableOp"
  input: "SASFieldNet/f_conv4/BatchNorm/beta"
  attr {
    key: "dtype"
    value {
      type: DT_FLOAT
    }
  }
}
node {
  name: "SASFieldNet/f_conv4/BatchNorm/moving_mean/Initializer/zeros"
  op: "Const"
  attr {
    key: "_class"
    value {
      list {
        s: "loc:@SASFieldNet/f_conv4/BatchNorm/moving_mean"
      }
    }
  }
  attr {
    key: "dtype"
    value {
      type: DT_FLOAT
    }
  }
  attr {
    key: "value"
    value {
      tensor {
        dtype: DT_FLOAT
        tensor_shape {
          dim {
            size: 64
          }
        }
        float_val: 0.0
      }
    }
  }
}
node {
  name: "SASFieldNet/f_conv4/BatchNorm/moving_mean"
  op: "VarHandleOp"
  attr {
    key: "_class"
    value {
      list {
        s: "loc:@SASFieldNet/f_conv4/BatchNorm/moving_mean"
      }
    }
  }
  attr {
    key: "allowed_devices"
    value {
      list {
      }
    }
  }
  attr {
    key: "container"
    value {
      s: ""
    }
  }
  attr {
    key: "dtype"
    value {
      type: DT_FLOAT
    }
  }
  attr {
    key: "shape"
    value {
      shape {
        dim {
          size: 64
        }
      }
    }
  }
  attr {
    key: "shared_name"
    value {
      s: "SASFieldNet/f_conv4/BatchNorm/moving_mean"
    }
  }
}
node {
  name: "SASFieldNet/f_conv4/BatchNorm/moving_mean/IsInitialized/VarIsInitializedOp"
  op: "VarIsInitializedOp"
  input: "SASFieldNet/f_conv4/BatchNorm/moving_mean"
}
node {
  name: "SASFieldNet/f_conv4/BatchNorm/moving_mean/Assign"
  op: "AssignVariableOp"
  input: "SASFieldNet/f_conv4/BatchNorm/moving_mean"
  input: "SASFieldNet/f_conv4/BatchNorm/moving_mean/Initializer/zeros"
  attr {
    key: "dtype"
    value {
      type: DT_FLOAT
    }
  }
}
node {
  name: "SASFieldNet/f_conv4/BatchNorm/moving_mean/Read/ReadVariableOp"
  op: "ReadVariableOp"
  input: "SASFieldNet/f_conv4/BatchNorm/moving_mean"
  attr {
    key: "dtype"
    value {
      type: DT_FLOAT
    }
  }
}
node {
  name: "SASFieldNet/f_conv4/BatchNorm/moving_variance/Initializer/ones"
  op: "Const"
  attr {
    key: "_class"
    value {
      list {
        s: "loc:@SASFieldNet/f_conv4/BatchNorm/moving_variance"
      }
    }
  }
  attr {
    key: "dtype"
    value {
      type: DT_FLOAT
    }
  }
  attr {
    key: "value"
    value {
      tensor {
        dtype: DT_FLOAT
        tensor_shape {
          dim {
            size: 64
          }
        }
        float_val: 1.0
      }
    }
  }
}
node {
  name: "SASFieldNet/f_conv4/BatchNorm/moving_variance"
  op: "VarHandleOp"
  attr {
    key: "_class"
    value {
      list {
        s: "loc:@SASFieldNet/f_conv4/BatchNorm/moving_variance"
      }
    }
  }
  attr {
    key: "allowed_devices"
    value {
      list {
      }
    }
  }
  attr {
    key: "container"
    value {
      s: ""
    }
  }
  attr {
    key: "dtype"
    value {
      type: DT_FLOAT
    }
  }
  attr {
    key: "shape"
    value {
      shape {
        dim {
          size: 64
        }
      }
    }
  }
  attr {
    key: "shared_name"
    value {
      s: "SASFieldNet/f_conv4/BatchNorm/moving_variance"
    }
  }
}
node {
  name: "SASFieldNet/f_conv4/BatchNorm/moving_variance/IsInitialized/VarIsInitializedOp"
  op: "VarIsInitializedOp"
  input: "SASFieldNet/f_conv4/BatchNorm/moving_variance"
}
node {
  name: "SASFieldNet/f_conv4/BatchNorm/moving_variance/Assign"
  op: "AssignVariableOp"
  input: "SASFieldNet/f_conv4/BatchNorm/moving_variance"
  input: "SASFieldNet/f_conv4/BatchNorm/moving_variance/Initializer/ones"
  attr {
    key: "dtype"
    value {
      type: DT_FLOAT
    }
  }
}
node {
  name: "SASFieldNet/f_conv4/BatchNorm/moving_variance/Read/ReadVariableOp"
  op: "ReadVariableOp"
  input: "SASFieldNet/f_conv4/BatchNorm/moving_variance"
  attr {
    key: "dtype"
    value {
      type: DT_FLOAT
    }
  }
}
node {
  name: "SASFieldNet/f_conv4/BatchNorm/ReadVariableOp"
  op: "ReadVariableOp"
  input: "SASFieldNet/f_conv4/BatchNorm/beta"
  attr {
    key: "dtype"
    value {
      type: DT_FLOAT
    }
  }
}
node {
  name: "SASFieldNet/f_conv4/BatchNorm/FusedBatchNormV3/ReadVariableOp"
  op: "ReadVariableOp"
  input: "SASFieldNet/f_conv4/BatchNorm/moving_mean"
  attr {
    key: "dtype"
    value {
      type: DT_FLOAT
    }
  }
}
node {
  name: "SASFieldNet/f_conv4/BatchNorm/FusedBatchNormV3/ReadVariableOp_1"
  op: "ReadVariableOp"
  input: "SASFieldNet/f_conv4/BatchNorm/moving_variance"
  attr {
    key: "dtype"
    value {
      type: DT_FLOAT
    }
  }
}
node {
  name: "SASFieldNet/f_conv4/BatchNorm/FusedBatchNormV3"
  op: "FusedBatchNormV3"
  input: "SASFieldNet/f_conv4/Conv2D"
  input: "SASFieldNet/f_conv4/BatchNorm/Const"
  input: "SASFieldNet/f_conv4/BatchNorm/ReadVariableOp"
  input: "SASFieldNet/f_conv4/BatchNorm/FusedBatchNormV3/ReadVariableOp"
  input: "SASFieldNet/f_conv4/BatchNorm/FusedBatchNormV3/ReadVariableOp_1"
  attr {
    key: "T"
    value {
      type: DT_FLOAT
    }
  }
  attr {
    key: "U"
    value {
      type: DT_FLOAT
    }
  }
  attr {
    key: "data_format"
    value {
      s: "NHWC"
    }
  }
  attr {
    key: "epsilon"
    value {
      f: 0.0010000000474974513
    }
  }
  attr {
    key: "exponential_avg_factor"
    value {
      f: 1.0
    }
  }
  attr {
    key: "is_training"
    value {
      b: false
    }
  }
}
node {
  name: "SASFieldNet/f_conv4/Relu"
  op: "Relu"
  input: "SASFieldNet/f_conv4/BatchNorm/FusedBatchNormV3"
  attr {
    key: "T"
    value {
      type: DT_FLOAT
    }
  }
}
node {
  name: "SASFieldNet/f_pool2/MaxPool"
  op: "MaxPool"
  input: "SASFieldNet/f_conv4/Relu"
  attr {
    key: "T"
    value {
      type: DT_FLOAT
    }
  }
  attr {
    key: "data_format"
    value {
      s: "NHWC"
    }
  }
  attr {
    key: "explicit_paddings"
    value {
      list {
      }
    }
  }
  attr {
    key: "ksize"
    value {
      list {
        i: 1
        i: 2
        i: 2
        i: 1
      }
    }
  }
  attr {
    key: "padding"
    value {
      s: "VALID"
    }
  }
  attr {
    key: "strides"
    value {
      list {
        i: 1
        i: 2
        i: 2
        i: 1
      }
    }
  }
}
node {
  name: "SASFieldNet/f_conv5/weights/Initializer/truncated_normal/shape"
  op: "Const"
  attr {
    key: "_class"
    value {
      list {
        s: "loc:@SASFieldNet/f_conv5/weights"
      }
    }
  }
  attr {
    key: "dtype"
    value {
      type: DT_INT32
    }
  }
  attr {
    key: "value"
    value {
      tensor {
        dtype: DT_INT32
        tensor_shape {
          dim {
            size: 4
          }
        }
        tensor_content: "\003\000\000\000\003\000\000\000@\000\000\000\200\000\000\000"
      }
    }
  }
}
node {
  name: "SASFieldNet/f_conv5/weights/Initializer/truncated_normal/mean"
  op: "Const"
  attr {
    key: "_class"
    value {
      list {
        s: "loc:@SASFieldNet/f_conv5/weights"
      }
    }
  }
  attr {
    key: "dtype"
    value {
      type: DT_FLOAT
    }
  }
  attr {
    key: "value"
    value {
      tensor {
        dtype: DT_FLOAT
        tensor_shape {
        }
        float_val: 0.0
      }
    }
  }
}
node {
  name: "SASFieldNet/f_conv5/weights/Initializer/truncated_normal/stddev"
  op: "Const"
  attr {
    key: "_class"
    value {
      list {
        s: "loc:@SASFieldNet/f_conv5/weights"
      }
    }
  }
  attr {
    key: "dtype"
    value {
      type: DT_FLOAT
    }
  }
  attr {
    key: "value"
    value {
      tensor {
        dtype: DT_FLOAT
        tensor_shape {
        }
        float_val: 0.009999999776482582
      }
    }
  }
}
node {
  name: "SASFieldNet/f_conv5/weights/Initializer/truncated_normal/TruncatedNormal"
  op: "TruncatedNormal"
  input: "SASFieldNet/f_conv5/weights/Initializer/truncated_normal/shape"
  attr {
    key: "T"
    value {
      type: DT_INT32
    }
  }
  attr {
    key: "_class"
    value {
      list {
        s: "loc:@SASFieldNet/f_conv5/weights"
      }
    }
  }
  attr {
    key: "dtype"
    value {
      type: DT_FLOAT
    }
  }
  attr {
    key: "seed"
    value {
      i: 0
    }
  }
  attr {
    key: "seed2"
    value {
      i: 0
    }
  }
}
node {
  name: "SASFieldNet/f_conv5/weights/Initializer/truncated_normal/mul"
  op: "Mul"
  input: "SASFieldNet/f_conv5/weights/Initializer/truncated_normal/TruncatedNormal"
  input: "SASFieldNet/f_conv5/weights/Initializer/truncated_normal/stddev"
  attr {
    key: "T"
    value {
      type: DT_FLOAT
    }
  }
  attr {
    key: "_class"
    value {
      list {
        s: "loc:@SASFieldNet/f_conv5/weights"
      }
    }
  }
}
node {
  name: "SASFieldNet/f_conv5/weights/Initializer/truncated_normal"
  op: "AddV2"
  input: "SASFieldNet/f_conv5/weights/Initializer/truncated_normal/mul"
  input: "SASFieldNet/f_conv5/weights/Initializer/truncated_normal/mean"
  attr {
    key: "T"
    value {
      type: DT_FLOAT
    }
  }
  attr {
    key: "_class"
    value {
      list {
        s: "loc:@SASFieldNet/f_conv5/weights"
      }
    }
  }
}
node {
  name: "SASFieldNet/f_conv5/weights"
  op: "VarHandleOp"
  attr {
    key: "_class"
    value {
      list {
        s: "loc:@SASFieldNet/f_conv5/weights"
      }
    }
  }
  attr {
    key: "allowed_devices"
    value {
      list {
      }
    }
  }
  attr {
    key: "container"
    value {
      s: ""
    }
  }
  attr {
    key: "dtype"
    value {
      type: DT_FLOAT
    }
  }
  attr {
    key: "shape"
    value {
      shape {
        dim {
          size: 3
        }
        dim {
          size: 3
        }
        dim {
          size: 64
        }
        dim {
          size: 128
        }
      }
    }
  }
  attr {
    key: "shared_name"
    value {
      s: "SASFieldNet/f_conv5/weights"
    }
  }
}
node {
  name: "SASFieldNet/f_conv5/weights/IsInitialized/VarIsInitializedOp"
  op: "VarIsInitializedOp"
  input: "SASFieldNet/f_conv5/weights"
}
node {
  name: "SASFieldNet/f_conv5/weights/Assign"
  op: "AssignVariableOp"
  input: "SASFieldNet/f_conv5/weights"
  input: "SASFieldNet/f_conv5/weights/Initializer/truncated_normal"
  attr {
    key: "dtype"
    value {
      type: DT_FLOAT
    }
  }
}
node {
  name: "SASFieldNet/f_conv5/weights/Read/ReadVariableOp"
  op: "ReadVariableOp"
  input: "SASFieldNet/f_conv5/weights"
  attr {
    key: "dtype"
    value {
      type: DT_FLOAT
    }
  }
}
node {
  name: "SASFieldNet/f_conv5/kernel/Regularizer/Square/ReadVariableOp"
  op: "ReadVariableOp"
  input: "SASFieldNet/f_conv5/weights"
  attr {
    key: "dtype"
    value {
      type: DT_FLOAT
    }
  }
}
node {
  name: "SASFieldNet/f_conv5/kernel/Regularizer/Square"
  op: "Square"
  input: "SASFieldNet/f_conv5/kernel/Regularizer/Square/ReadVariableOp"
  attr {
    key: "T"
    value {
      type: DT_FLOAT
    }
  }
}
node {
  name: "SASFieldNet/f_conv5/kernel/Regularizer/Const"
  op: "Const"
  attr {
    key: "dtype"
    value {
      type: DT_INT32
    }
  }
  attr {
    key: "value"
    value {
      tensor {
        dtype: DT_INT32
        tensor_shape {
          dim {
            size: 4
          }
        }
        tensor_content: "\000\000\000\000\001\000\000\000\002\000\000\000\003\000\000\000"
      }
    }
  }
}
node {
  name: "SASFieldNet/f_conv5/kernel/Regularizer/Sum"
  op: "Sum"
  input: "SASFieldNet/f_conv5/kernel/Regularizer/Square"
  input: "SASFieldNet/f_conv5/kernel/Regularizer/Const"
  attr {
    key: "T"
    value {
      type: DT_FLOAT
    }
  }
  attr {
    key: "Tidx"
    value {
      type: DT_INT32
    }
  }
  attr {
    key: "keep_dims"
    value {
      b: false
    }
  }
}
node {
  name: "SASFieldNet/f_conv5/kernel/Regularizer/mul/x"
  op: "Const"
  attr {
    key: "dtype"
    value {
      type: DT_FLOAT
    }
  }
  attr {
    key: "value"
    value {
      tensor {
        dtype: DT_FLOAT
        tensor_shape {
        }
        float_val: 0.0002500000118743628
      }
    }
  }
}
node {
  name: "SASFieldNet/f_conv5/kernel/Regularizer/mul"
  op: "Mul"
  input: "SASFieldNet/f_conv5/kernel/Regularizer/mul/x"
  input: "SASFieldNet/f_conv5/kernel/Regularizer/Sum"
  attr {
    key: "T"
    value {
      type: DT_FLOAT
    }
  }
}
node {
  name: "SASFieldNet/f_conv5/Conv2D/ReadVariableOp"
  op: "ReadVariableOp"
  input: "SASFieldNet/f_conv5/weights"
  attr {
    key: "dtype"
    value {
      type: DT_FLOAT
    }
  }
}
node {
  name: "SASFieldNet/f_conv5/Conv2D"
  op: "Conv2D"
  input: "SASFieldNet/f_pool2/MaxPool"
  input: "SASFieldNet/f_conv5/Conv2D/ReadVariableOp"
  attr {
    key: "T"
    value {
      type: DT_FLOAT
    }
  }
  attr {
    key: "data_format"
    value {
      s: "NHWC"
    }
  }
  attr {
    key: "dilations"
    value {
      list {
        i: 1
        i: 1
        i: 1
        i: 1
      }
    }
  }
  attr {
    key: "explicit_paddings"
    value {
      list {
      }
    }
  }
  attr {
    key: "padding"
    value {
      s: "SAME"
    }
  }
  attr {
    key: "strides"
    value {
      list {
        i: 1
        i: 1
        i: 1
        i: 1
      }
    }
  }
  attr {
    key: "use_cudnn_on_gpu"
    value {
      b: true
    }
  }
}
node {
  name: "SASFieldNet/f_conv5/BatchNorm/Const"
  op: "Const"
  attr {
    key: "dtype"
    value {
      type: DT_FLOAT
    }
  }
  attr {
    key: "value"
    value {
      tensor {
        dtype: DT_FLOAT
        tensor_shape {
          dim {
            size: 128
          }
        }
        float_val: 1.0
      }
    }
  }
}
node {
  name: "SASFieldNet/f_conv5/BatchNorm/beta/Initializer/zeros"
  op: "Const"
  attr {
    key: "_class"
    value {
      list {
        s: "loc:@SASFieldNet/f_conv5/BatchNorm/beta"
      }
    }
  }
  attr {
    key: "dtype"
    value {
      type: DT_FLOAT
    }
  }
  attr {
    key: "value"
    value {
      tensor {
        dtype: DT_FLOAT
        tensor_shape {
          dim {
            size: 128
          }
        }
        float_val: 0.0
      }
    }
  }
}
node {
  name: "SASFieldNet/f_conv5/BatchNorm/beta"
  op: "VarHandleOp"
  attr {
    key: "_class"
    value {
      list {
        s: "loc:@SASFieldNet/f_conv5/BatchNorm/beta"
      }
    }
  }
  attr {
    key: "allowed_devices"
    value {
      list {
      }
    }
  }
  attr {
    key: "container"
    value {
      s: ""
    }
  }
  attr {
    key: "dtype"
    value {
      type: DT_FLOAT
    }
  }
  attr {
    key: "shape"
    value {
      shape {
        dim {
          size: 128
        }
      }
    }
  }
  attr {
    key: "shared_name"
    value {
      s: "SASFieldNet/f_conv5/BatchNorm/beta"
    }
  }
}
node {
  name: "SASFieldNet/f_conv5/BatchNorm/beta/IsInitialized/VarIsInitializedOp"
  op: "VarIsInitializedOp"
  input: "SASFieldNet/f_conv5/BatchNorm/beta"
}
node {
  name: "SASFieldNet/f_conv5/BatchNorm/beta/Assign"
  op: "AssignVariableOp"
  input: "SASFieldNet/f_conv5/BatchNorm/beta"
  input: "SASFieldNet/f_conv5/BatchNorm/beta/Initializer/zeros"
  attr {
    key: "dtype"
    value {
      type: DT_FLOAT
    }
  }
}
node {
  name: "SASFieldNet/f_conv5/BatchNorm/beta/Read/ReadVariableOp"
  op: "ReadVariableOp"
  input: "SASFieldNet/f_conv5/BatchNorm/beta"
  attr {
    key: "dtype"
    value {
      type: DT_FLOAT
    }
  }
}
node {
  name: "SASFieldNet/f_conv5/BatchNorm/moving_mean/Initializer/zeros"
  op: "Const"
  attr {
    key: "_class"
    value {
      list {
        s: "loc:@SASFieldNet/f_conv5/BatchNorm/moving_mean"
      }
    }
  }
  attr {
    key: "dtype"
    value {
      type: DT_FLOAT
    }
  }
  attr {
    key: "value"
    value {
      tensor {
        dtype: DT_FLOAT
        tensor_shape {
          dim {
            size: 128
          }
        }
        float_val: 0.0
      }
    }
  }
}
node {
  name: "SASFieldNet/f_conv5/BatchNorm/moving_mean"
  op: "VarHandleOp"
  attr {
    key: "_class"
    value {
      list {
        s: "loc:@SASFieldNet/f_conv5/BatchNorm/moving_mean"
      }
    }
  }
  attr {
    key: "allowed_devices"
    value {
      list {
      }
    }
  }
  attr {
    key: "container"
    value {
      s: ""
    }
  }
  attr {
    key: "dtype"
    value {
      type: DT_FLOAT
    }
  }
  attr {
    key: "shape"
    value {
      shape {
        dim {
          size: 128
        }
      }
    }
  }
  attr {
    key: "shared_name"
    value {
      s: "SASFieldNet/f_conv5/BatchNorm/moving_mean"
    }
  }
}
node {
  name: "SASFieldNet/f_conv5/BatchNorm/moving_mean/IsInitialized/VarIsInitializedOp"
  op: "VarIsInitializedOp"
  input: "SASFieldNet/f_conv5/BatchNorm/moving_mean"
}
node {
  name: "SASFieldNet/f_conv5/BatchNorm/moving_mean/Assign"
  op: "AssignVariableOp"
  input: "SASFieldNet/f_conv5/BatchNorm/moving_mean"
  input: "SASFieldNet/f_conv5/BatchNorm/moving_mean/Initializer/zeros"
  attr {
    key: "dtype"
    value {
      type: DT_FLOAT
    }
  }
}
node {
  name: "SASFieldNet/f_conv5/BatchNorm/moving_mean/Read/ReadVariableOp"
  op: "ReadVariableOp"
  input: "SASFieldNet/f_conv5/BatchNorm/moving_mean"
  attr {
    key: "dtype"
    value {
      type: DT_FLOAT
    }
  }
}
node {
  name: "SASFieldNet/f_conv5/BatchNorm/moving_variance/Initializer/ones"
  op: "Const"
  attr {
    key: "_class"
    value {
      list {
        s: "loc:@SASFieldNet/f_conv5/BatchNorm/moving_variance"
      }
    }
  }
  attr {
    key: "dtype"
    value {
      type: DT_FLOAT
    }
  }
  attr {
    key: "value"
    value {
      tensor {
        dtype: DT_FLOAT
        tensor_shape {
          dim {
            size: 128
          }
        }
        float_val: 1.0
      }
    }
  }
}
node {
  name: "SASFieldNet/f_conv5/BatchNorm/moving_variance"
  op: "VarHandleOp"
  attr {
    key: "_class"
    value {
      list {
        s: "loc:@SASFieldNet/f_conv5/BatchNorm/moving_variance"
      }
    }
  }
  attr {
    key: "allowed_devices"
    value {
      list {
      }
    }
  }
  attr {
    key: "container"
    value {
      s: ""
    }
  }
  attr {
    key: "dtype"
    value {
      type: DT_FLOAT
    }
  }
  attr {
    key: "shape"
    value {
      shape {
        dim {
          size: 128
        }
      }
    }
  }
  attr {
    key: "shared_name"
    value {
      s: "SASFieldNet/f_conv5/BatchNorm/moving_variance"
    }
  }
}
node {
  name: "SASFieldNet/f_conv5/BatchNorm/moving_variance/IsInitialized/VarIsInitializedOp"
  op: "VarIsInitializedOp"
  input: "SASFieldNet/f_conv5/BatchNorm/moving_variance"
}
node {
  name: "SASFieldNet/f_conv5/BatchNorm/moving_variance/Assign"
  op: "AssignVariableOp"
  input: "SASFieldNet/f_conv5/BatchNorm/moving_variance"
  input: "SASFieldNet/f_conv5/BatchNorm/moving_variance/Initializer/ones"
  attr {
    key: "dtype"
    value {
      type: DT_FLOAT
    }
  }
}
node {
  name: "SASFieldNet/f_conv5/BatchNorm/moving_variance/Read/ReadVariableOp"
  op: "ReadVariableOp"
  input: "SASFieldNet/f_conv5/BatchNorm/moving_variance"
  attr {
    key: "dtype"
    value {
      type: DT_FLOAT
    }
  }
}
node {
  name: "SASFieldNet/f_conv5/BatchNorm/ReadVariableOp"
  op: "ReadVariableOp"
  input: "SASFieldNet/f_conv5/BatchNorm/beta"
  attr {
    key: "dtype"
    value {
      type: DT_FLOAT
    }
  }
}
node {
  name: "SASFieldNet/f_conv5/BatchNorm/FusedBatchNormV3/ReadVariableOp"
  op: "ReadVariableOp"
  input: "SASFieldNet/f_conv5/BatchNorm/moving_mean"
  attr {
    key: "dtype"
    value {
      type: DT_FLOAT
    }
  }
}
node {
  name: "SASFieldNet/f_conv5/BatchNorm/FusedBatchNormV3/ReadVariableOp_1"
  op: "ReadVariableOp"
  input: "SASFieldNet/f_conv5/BatchNorm/moving_variance"
  attr {
    key: "dtype"
    value {
      type: DT_FLOAT
    }
  }
}
node {
  name: "SASFieldNet/f_conv5/BatchNorm/FusedBatchNormV3"
  op: "FusedBatchNormV3"
  input: "SASFieldNet/f_conv5/Conv2D"
  input: "SASFieldNet/f_conv5/BatchNorm/Const"
  input: "SASFieldNet/f_conv5/BatchNorm/ReadVariableOp"
  input: "SASFieldNet/f_conv5/BatchNorm/FusedBatchNormV3/ReadVariableOp"
  input: "SASFieldNet/f_conv5/BatchNorm/FusedBatchNormV3/ReadVariableOp_1"
  attr {
    key: "T"
    value {
      type: DT_FLOAT
    }
  }
  attr {
    key: "U"
    value {
      type: DT_FLOAT
    }
  }
  attr {
    key: "data_format"
    value {
      s: "NHWC"
    }
  }
  attr {
    key: "epsilon"
    value {
      f: 0.0010000000474974513
    }
  }
  attr {
    key: "exponential_avg_factor"
    value {
      f: 1.0
    }
  }
  attr {
    key: "is_training"
    value {
      b: false
    }
  }
}
node {
  name: "SASFieldNet/f_conv5/Relu"
  op: "Relu"
  input: "SASFieldNet/f_conv5/BatchNorm/FusedBatchNormV3"
  attr {
    key: "T"
    value {
      type: DT_FLOAT
    }
  }
}
node {
  name: "SASFieldNet/f_conv6/weights/Initializer/truncated_normal/shape"
  op: "Const"
  attr {
    key: "_class"
    value {
      list {
        s: "loc:@SASFieldNet/f_conv6/weights"
      }
    }
  }
  attr {
    key: "dtype"
    value {
      type: DT_INT32
    }
  }
  attr {
    key: "value"
    value {
      tensor {
        dtype: DT_INT32
        tensor_shape {
          dim {
            size: 4
          }
        }
        tensor_content: "\003\000\000\000\003\000\000\000\200\000\000\000\200\000\000\000"
      }
    }
  }
}
node {
  name: "SASFieldNet/f_conv6/weights/Initializer/truncated_normal/mean"
  op: "Const"
  attr {
    key: "_class"
    value {
      list {
        s: "loc:@SASFieldNet/f_conv6/weights"
      }
    }
  }
  attr {
    key: "dtype"
    value {
      type: DT_FLOAT
    }
  }
  attr {
    key: "value"
    value {
      tensor {
        dtype: DT_FLOAT
        tensor_shape {
        }
        float_val: 0.0
      }
    }
  }
}
node {
  name: "SASFieldNet/f_conv6/weights/Initializer/truncated_normal/stddev"
  op: "Const"
  attr {
    key: "_class"
    value {
      list {
        s: "loc:@SASFieldNet/f_conv6/weights"
      }
    }
  }
  attr {
    key: "dtype"
    value {
      type: DT_FLOAT
    }
  }
  attr {
    key: "value"
    value {
      tensor {
        dtype: DT_FLOAT
        tensor_shape {
        }
        float_val: 0.009999999776482582
      }
    }
  }
}
node {
  name: "SASFieldNet/f_conv6/weights/Initializer/truncated_normal/TruncatedNormal"
  op: "TruncatedNormal"
  input: "SASFieldNet/f_conv6/weights/Initializer/truncated_normal/shape"
  attr {
    key: "T"
    value {
      type: DT_INT32
    }
  }
  attr {
    key: "_class"
    value {
      list {
        s: "loc:@SASFieldNet/f_conv6/weights"
      }
    }
  }
  attr {
    key: "dtype"
    value {
      type: DT_FLOAT
    }
  }
  attr {
    key: "seed"
    value {
      i: 0
    }
  }
  attr {
    key: "seed2"
    value {
      i: 0
    }
  }
}
node {
  name: "SASFieldNet/f_conv6/weights/Initializer/truncated_normal/mul"
  op: "Mul"
  input: "SASFieldNet/f_conv6/weights/Initializer/truncated_normal/TruncatedNormal"
  input: "SASFieldNet/f_conv6/weights/Initializer/truncated_normal/stddev"
  attr {
    key: "T"
    value {
      type: DT_FLOAT
    }
  }
  attr {
    key: "_class"
    value {
      list {
        s: "loc:@SASFieldNet/f_conv6/weights"
      }
    }
  }
}
node {
  name: "SASFieldNet/f_conv6/weights/Initializer/truncated_normal"
  op: "AddV2"
  input: "SASFieldNet/f_conv6/weights/Initializer/truncated_normal/mul"
  input: "SASFieldNet/f_conv6/weights/Initializer/truncated_normal/mean"
  attr {
    key: "T"
    value {
      type: DT_FLOAT
    }
  }
  attr {
    key: "_class"
    value {
      list {
        s: "loc:@SASFieldNet/f_conv6/weights"
      }
    }
  }
}
node {
  name: "SASFieldNet/f_conv6/weights"
  op: "VarHandleOp"
  attr {
    key: "_class"
    value {
      list {
        s: "loc:@SASFieldNet/f_conv6/weights"
      }
    }
  }
  attr {
    key: "allowed_devices"
    value {
      list {
      }
    }
  }
  attr {
    key: "container"
    value {
      s: ""
    }
  }
  attr {
    key: "dtype"
    value {
      type: DT_FLOAT
    }
  }
  attr {
    key: "shape"
    value {
      shape {
        dim {
          size: 3
        }
        dim {
          size: 3
        }
        dim {
          size: 128
        }
        dim {
          size: 128
        }
      }
    }
  }
  attr {
    key: "shared_name"
    value {
      s: "SASFieldNet/f_conv6/weights"
    }
  }
}
node {
  name: "SASFieldNet/f_conv6/weights/IsInitialized/VarIsInitializedOp"
  op: "VarIsInitializedOp"
  input: "SASFieldNet/f_conv6/weights"
}
node {
  name: "SASFieldNet/f_conv6/weights/Assign"
  op: "AssignVariableOp"
  input: "SASFieldNet/f_conv6/weights"
  input: "SASFieldNet/f_conv6/weights/Initializer/truncated_normal"
  attr {
    key: "dtype"
    value {
      type: DT_FLOAT
    }
  }
}
node {
  name: "SASFieldNet/f_conv6/weights/Read/ReadVariableOp"
  op: "ReadVariableOp"
  input: "SASFieldNet/f_conv6/weights"
  attr {
    key: "dtype"
    value {
      type: DT_FLOAT
    }
  }
}
node {
  name: "SASFieldNet/f_conv6/kernel/Regularizer/Square/ReadVariableOp"
  op: "ReadVariableOp"
  input: "SASFieldNet/f_conv6/weights"
  attr {
    key: "dtype"
    value {
      type: DT_FLOAT
    }
  }
}
node {
  name: "SASFieldNet/f_conv6/kernel/Regularizer/Square"
  op: "Square"
  input: "SASFieldNet/f_conv6/kernel/Regularizer/Square/ReadVariableOp"
  attr {
    key: "T"
    value {
      type: DT_FLOAT
    }
  }
}
node {
  name: "SASFieldNet/f_conv6/kernel/Regularizer/Const"
  op: "Const"
  attr {
    key: "dtype"
    value {
      type: DT_INT32
    }
  }
  attr {
    key: "value"
    value {
      tensor {
        dtype: DT_INT32
        tensor_shape {
          dim {
            size: 4
          }
        }
        tensor_content: "\000\000\000\000\001\000\000\000\002\000\000\000\003\000\000\000"
      }
    }
  }
}
node {
  name: "SASFieldNet/f_conv6/kernel/Regularizer/Sum"
  op: "Sum"
  input: "SASFieldNet/f_conv6/kernel/Regularizer/Square"
  input: "SASFieldNet/f_conv6/kernel/Regularizer/Const"
  attr {
    key: "T"
    value {
      type: DT_FLOAT
    }
  }
  attr {
    key: "Tidx"
    value {
      type: DT_INT32
    }
  }
  attr {
    key: "keep_dims"
    value {
      b: false
    }
  }
}
node {
  name: "SASFieldNet/f_conv6/kernel/Regularizer/mul/x"
  op: "Const"
  attr {
    key: "dtype"
    value {
      type: DT_FLOAT
    }
  }
  attr {
    key: "value"
    value {
      tensor {
        dtype: DT_FLOAT
        tensor_shape {
        }
        float_val: 0.0002500000118743628
      }
    }
  }
}
node {
  name: "SASFieldNet/f_conv6/kernel/Regularizer/mul"
  op: "Mul"
  input: "SASFieldNet/f_conv6/kernel/Regularizer/mul/x"
  input: "SASFieldNet/f_conv6/kernel/Regularizer/Sum"
  attr {
    key: "T"
    value {
      type: DT_FLOAT
    }
  }
}
node {
  name: "SASFieldNet/f_conv6/Conv2D/ReadVariableOp"
  op: "ReadVariableOp"
  input: "SASFieldNet/f_conv6/weights"
  attr {
    key: "dtype"
    value {
      type: DT_FLOAT
    }
  }
}
node {
  name: "SASFieldNet/f_conv6/Conv2D"
  op: "Conv2D"
  input: "SASFieldNet/f_conv5/Relu"
  input: "SASFieldNet/f_conv6/Conv2D/ReadVariableOp"
  attr {
    key: "T"
    value {
      type: DT_FLOAT
    }
  }
  attr {
    key: "data_format"
    value {
      s: "NHWC"
    }
  }
  attr {
    key: "dilations"
    value {
      list {
        i: 1
        i: 1
        i: 1
        i: 1
      }
    }
  }
  attr {
    key: "explicit_paddings"
    value {
      list {
      }
    }
  }
  attr {
    key: "padding"
    value {
      s: "SAME"
    }
  }
  attr {
    key: "strides"
    value {
      list {
        i: 1
        i: 1
        i: 1
        i: 1
      }
    }
  }
  attr {
    key: "use_cudnn_on_gpu"
    value {
      b: true
    }
  }
}
node {
  name: "SASFieldNet/f_conv6/BatchNorm/Const"
  op: "Const"
  attr {
    key: "dtype"
    value {
      type: DT_FLOAT
    }
  }
  attr {
    key: "value"
    value {
      tensor {
        dtype: DT_FLOAT
        tensor_shape {
          dim {
            size: 128
          }
        }
        float_val: 1.0
      }
    }
  }
}
node {
  name: "SASFieldNet/f_conv6/BatchNorm/beta/Initializer/zeros"
  op: "Const"
  attr {
    key: "_class"
    value {
      list {
        s: "loc:@SASFieldNet/f_conv6/BatchNorm/beta"
      }
    }
  }
  attr {
    key: "dtype"
    value {
      type: DT_FLOAT
    }
  }
  attr {
    key: "value"
    value {
      tensor {
        dtype: DT_FLOAT
        tensor_shape {
          dim {
            size: 128
          }
        }
        float_val: 0.0
      }
    }
  }
}
node {
  name: "SASFieldNet/f_conv6/BatchNorm/beta"
  op: "VarHandleOp"
  attr {
    key: "_class"
    value {
      list {
        s: "loc:@SASFieldNet/f_conv6/BatchNorm/beta"
      }
    }
  }
  attr {
    key: "allowed_devices"
    value {
      list {
      }
    }
  }
  attr {
    key: "container"
    value {
      s: ""
    }
  }
  attr {
    key: "dtype"
    value {
      type: DT_FLOAT
    }
  }
  attr {
    key: "shape"
    value {
      shape {
        dim {
          size: 128
        }
      }
    }
  }
  attr {
    key: "shared_name"
    value {
      s: "SASFieldNet/f_conv6/BatchNorm/beta"
    }
  }
}
node {
  name: "SASFieldNet/f_conv6/BatchNorm/beta/IsInitialized/VarIsInitializedOp"
  op: "VarIsInitializedOp"
  input: "SASFieldNet/f_conv6/BatchNorm/beta"
}
node {
  name: "SASFieldNet/f_conv6/BatchNorm/beta/Assign"
  op: "AssignVariableOp"
  input: "SASFieldNet/f_conv6/BatchNorm/beta"
  input: "SASFieldNet/f_conv6/BatchNorm/beta/Initializer/zeros"
  attr {
    key: "dtype"
    value {
      type: DT_FLOAT
    }
  }
}
node {
  name: "SASFieldNet/f_conv6/BatchNorm/beta/Read/ReadVariableOp"
  op: "ReadVariableOp"
  input: "SASFieldNet/f_conv6/BatchNorm/beta"
  attr {
    key: "dtype"
    value {
      type: DT_FLOAT
    }
  }
}
node {
  name: "SASFieldNet/f_conv6/BatchNorm/moving_mean/Initializer/zeros"
  op: "Const"
  attr {
    key: "_class"
    value {
      list {
        s: "loc:@SASFieldNet/f_conv6/BatchNorm/moving_mean"
      }
    }
  }
  attr {
    key: "dtype"
    value {
      type: DT_FLOAT
    }
  }
  attr {
    key: "value"
    value {
      tensor {
        dtype: DT_FLOAT
        tensor_shape {
          dim {
            size: 128
          }
        }
        float_val: 0.0
      }
    }
  }
}
node {
  name: "SASFieldNet/f_conv6/BatchNorm/moving_mean"
  op: "VarHandleOp"
  attr {
    key: "_class"
    value {
      list {
        s: "loc:@SASFieldNet/f_conv6/BatchNorm/moving_mean"
      }
    }
  }
  attr {
    key: "allowed_devices"
    value {
      list {
      }
    }
  }
  attr {
    key: "container"
    value {
      s: ""
    }
  }
  attr {
    key: "dtype"
    value {
      type: DT_FLOAT
    }
  }
  attr {
    key: "shape"
    value {
      shape {
        dim {
          size: 128
        }
      }
    }
  }
  attr {
    key: "shared_name"
    value {
      s: "SASFieldNet/f_conv6/BatchNorm/moving_mean"
    }
  }
}
node {
  name: "SASFieldNet/f_conv6/BatchNorm/moving_mean/IsInitialized/VarIsInitializedOp"
  op: "VarIsInitializedOp"
  input: "SASFieldNet/f_conv6/BatchNorm/moving_mean"
}
node {
  name: "SASFieldNet/f_conv6/BatchNorm/moving_mean/Assign"
  op: "AssignVariableOp"
  input: "SASFieldNet/f_conv6/BatchNorm/moving_mean"
  input: "SASFieldNet/f_conv6/BatchNorm/moving_mean/Initializer/zeros"
  attr {
    key: "dtype"
    value {
      type: DT_FLOAT
    }
  }
}
node {
  name: "SASFieldNet/f_conv6/BatchNorm/moving_mean/Read/ReadVariableOp"
  op: "ReadVariableOp"
  input: "SASFieldNet/f_conv6/BatchNorm/moving_mean"
  attr {
    key: "dtype"
    value {
      type: DT_FLOAT
    }
  }
}
node {
  name: "SASFieldNet/f_conv6/BatchNorm/moving_variance/Initializer/ones"
  op: "Const"
  attr {
    key: "_class"
    value {
      list {
        s: "loc:@SASFieldNet/f_conv6/BatchNorm/moving_variance"
      }
    }
  }
  attr {
    key: "dtype"
    value {
      type: DT_FLOAT
    }
  }
  attr {
    key: "value"
    value {
      tensor {
        dtype: DT_FLOAT
        tensor_shape {
          dim {
            size: 128
          }
        }
        float_val: 1.0
      }
    }
  }
}
node {
  name: "SASFieldNet/f_conv6/BatchNorm/moving_variance"
  op: "VarHandleOp"
  attr {
    key: "_class"
    value {
      list {
        s: "loc:@SASFieldNet/f_conv6/BatchNorm/moving_variance"
      }
    }
  }
  attr {
    key: "allowed_devices"
    value {
      list {
      }
    }
  }
  attr {
    key: "container"
    value {
      s: ""
    }
  }
  attr {
    key: "dtype"
    value {
      type: DT_FLOAT
    }
  }
  attr {
    key: "shape"
    value {
      shape {
        dim {
          size: 128
        }
      }
    }
  }
  attr {
    key: "shared_name"
    value {
      s: "SASFieldNet/f_conv6/BatchNorm/moving_variance"
    }
  }
}
node {
  name: "SASFieldNet/f_conv6/BatchNorm/moving_variance/IsInitialized/VarIsInitializedOp"
  op: "VarIsInitializedOp"
  input: "SASFieldNet/f_conv6/BatchNorm/moving_variance"
}
node {
  name: "SASFieldNet/f_conv6/BatchNorm/moving_variance/Assign"
  op: "AssignVariableOp"
  input: "SASFieldNet/f_conv6/BatchNorm/moving_variance"
  input: "SASFieldNet/f_conv6/BatchNorm/moving_variance/Initializer/ones"
  attr {
    key: "dtype"
    value {
      type: DT_FLOAT
    }
  }
}
node {
  name: "SASFieldNet/f_conv6/BatchNorm/moving_variance/Read/ReadVariableOp"
  op: "ReadVariableOp"
  input: "SASFieldNet/f_conv6/BatchNorm/moving_variance"
  attr {
    key: "dtype"
    value {
      type: DT_FLOAT
    }
  }
}
node {
  name: "SASFieldNet/f_conv6/BatchNorm/ReadVariableOp"
  op: "ReadVariableOp"
  input: "SASFieldNet/f_conv6/BatchNorm/beta"
  attr {
    key: "dtype"
    value {
      type: DT_FLOAT
    }
  }
}
node {
  name: "SASFieldNet/f_conv6/BatchNorm/FusedBatchNormV3/ReadVariableOp"
  op: "ReadVariableOp"
  input: "SASFieldNet/f_conv6/BatchNorm/moving_mean"
  attr {
    key: "dtype"
    value {
      type: DT_FLOAT
    }
  }
}
node {
  name: "SASFieldNet/f_conv6/BatchNorm/FusedBatchNormV3/ReadVariableOp_1"
  op: "ReadVariableOp"
  input: "SASFieldNet/f_conv6/BatchNorm/moving_variance"
  attr {
    key: "dtype"
    value {
      type: DT_FLOAT
    }
  }
}
node {
  name: "SASFieldNet/f_conv6/BatchNorm/FusedBatchNormV3"
  op: "FusedBatchNormV3"
  input: "SASFieldNet/f_conv6/Conv2D"
  input: "SASFieldNet/f_conv6/BatchNorm/Const"
  input: "SASFieldNet/f_conv6/BatchNorm/ReadVariableOp"
  input: "SASFieldNet/f_conv6/BatchNorm/FusedBatchNormV3/ReadVariableOp"
  input: "SASFieldNet/f_conv6/BatchNorm/FusedBatchNormV3/ReadVariableOp_1"
  attr {
    key: "T"
    value {
      type: DT_FLOAT
    }
  }
  attr {
    key: "U"
    value {
      type: DT_FLOAT
    }
  }
  attr {
    key: "data_format"
    value {
      s: "NHWC"
    }
  }
  attr {
    key: "epsilon"
    value {
      f: 0.0010000000474974513
    }
  }
  attr {
    key: "exponential_avg_factor"
    value {
      f: 1.0
    }
  }
  attr {
    key: "is_training"
    value {
      b: false
    }
  }
}
node {
  name: "SASFieldNet/f_conv6/Relu"
  op: "Relu"
  input: "SASFieldNet/f_conv6/BatchNorm/FusedBatchNormV3"
  attr {
    key: "T"
    value {
      type: DT_FLOAT
    }
  }
}
node {
  name: "SASFieldNet/f_deconv3_1/weights/Initializer/truncated_normal/shape"
  op: "Const"
  attr {
    key: "_class"
    value {
      list {
        s: "loc:@SASFieldNet/f_deconv3_1/weights"
      }
    }
  }
  attr {
    key: "dtype"
    value {
      type: DT_INT32
    }
  }
  attr {
    key: "value"
    value {
      tensor {
        dtype: DT_INT32
        tensor_shape {
          dim {
            size: 4
          }
        }
        tensor_content: "\002\000\000\000\002\000\000\000@\000\000\000\200\000\000\000"
      }
    }
  }
}
node {
  name: "SASFieldNet/f_deconv3_1/weights/Initializer/truncated_normal/mean"
  op: "Const"
  attr {
    key: "_class"
    value {
      list {
        s: "loc:@SASFieldNet/f_deconv3_1/weights"
      }
    }
  }
  attr {
    key: "dtype"
    value {
      type: DT_FLOAT
    }
  }
  attr {
    key: "value"
    value {
      tensor {
        dtype: DT_FLOAT
        tensor_shape {
        }
        float_val: 0.0
      }
    }
  }
}
node {
  name: "SASFieldNet/f_deconv3_1/weights/Initializer/truncated_normal/stddev"
  op: "Const"
  attr {
    key: "_class"
    value {
      list {
        s: "loc:@SASFieldNet/f_deconv3_1/weights"
      }
    }
  }
  attr {
    key: "dtype"
    value {
      type: DT_FLOAT
    }
  }
  attr {
    key: "value"
    value {
      tensor {
        dtype: DT_FLOAT
        tensor_shape {
        }
        float_val: 0.009999999776482582
      }
    }
  }
}
node {
  name: "SASFieldNet/f_deconv3_1/weights/Initializer/truncated_normal/TruncatedNormal"
  op: "TruncatedNormal"
  input: "SASFieldNet/f_deconv3_1/weights/Initializer/truncated_normal/shape"
  attr {
    key: "T"
    value {
      type: DT_INT32
    }
  }
  attr {
    key: "_class"
    value {
      list {
        s: "loc:@SASFieldNet/f_deconv3_1/weights"
      }
    }
  }
  attr {
    key: "dtype"
    value {
      type: DT_FLOAT
    }
  }
  attr {
    key: "seed"
    value {
      i: 0
    }
  }
  attr {
    key: "seed2"
    value {
      i: 0
    }
  }
}
node {
  name: "SASFieldNet/f_deconv3_1/weights/Initializer/truncated_normal/mul"
  op: "Mul"
  input: "SASFieldNet/f_deconv3_1/weights/Initializer/truncated_normal/TruncatedNormal"
  input: "SASFieldNet/f_deconv3_1/weights/Initializer/truncated_normal/stddev"
  attr {
    key: "T"
    value {
      type: DT_FLOAT
    }
  }
  attr {
    key: "_class"
    value {
      list {
        s: "loc:@SASFieldNet/f_deconv3_1/weights"
      }
    }
  }
}
node {
  name: "SASFieldNet/f_deconv3_1/weights/Initializer/truncated_normal"
  op: "AddV2"
  input: "SASFieldNet/f_deconv3_1/weights/Initializer/truncated_normal/mul"
  input: "SASFieldNet/f_deconv3_1/weights/Initializer/truncated_normal/mean"
  attr {
    key: "T"
    value {
      type: DT_FLOAT
    }
  }
  attr {
    key: "_class"
    value {
      list {
        s: "loc:@SASFieldNet/f_deconv3_1/weights"
      }
    }
  }
}
node {
  name: "SASFieldNet/f_deconv3_1/weights"
  op: "VarHandleOp"
  attr {
    key: "_class"
    value {
      list {
        s: "loc:@SASFieldNet/f_deconv3_1/weights"
      }
    }
  }
  attr {
    key: "allowed_devices"
    value {
      list {
      }
    }
  }
  attr {
    key: "container"
    value {
      s: ""
    }
  }
  attr {
    key: "dtype"
    value {
      type: DT_FLOAT
    }
  }
  attr {
    key: "shape"
    value {
      shape {
        dim {
          size: 2
        }
        dim {
          size: 2
        }
        dim {
          size: 64
        }
        dim {
          size: 128
        }
      }
    }
  }
  attr {
    key: "shared_name"
    value {
      s: "SASFieldNet/f_deconv3_1/weights"
    }
  }
}
node {
  name: "SASFieldNet/f_deconv3_1/weights/IsInitialized/VarIsInitializedOp"
  op: "VarIsInitializedOp"
  input: "SASFieldNet/f_deconv3_1/weights"
}
node {
  name: "SASFieldNet/f_deconv3_1/weights/Assign"
  op: "AssignVariableOp"
  input: "SASFieldNet/f_deconv3_1/weights"
  input: "SASFieldNet/f_deconv3_1/weights/Initializer/truncated_normal"
  attr {
    key: "dtype"
    value {
      type: DT_FLOAT
    }
  }
}
node {
  name: "SASFieldNet/f_deconv3_1/weights/Read/ReadVariableOp"
  op: "ReadVariableOp"
  input: "SASFieldNet/f_deconv3_1/weights"
  attr {
    key: "dtype"
    value {
      type: DT_FLOAT
    }
  }
}
node {
  name: "SASFieldNet/f_deconv3_1/kernel/Regularizer/Square/ReadVariableOp"
  op: "ReadVariableOp"
  input: "SASFieldNet/f_deconv3_1/weights"
  attr {
    key: "dtype"
    value {
      type: DT_FLOAT
    }
  }
}
node {
  name: "SASFieldNet/f_deconv3_1/kernel/Regularizer/Square"
  op: "Square"
  input: "SASFieldNet/f_deconv3_1/kernel/Regularizer/Square/ReadVariableOp"
  attr {
    key: "T"
    value {
      type: DT_FLOAT
    }
  }
}
node {
  name: "SASFieldNet/f_deconv3_1/kernel/Regularizer/Const"
  op: "Const"
  attr {
    key: "dtype"
    value {
      type: DT_INT32
    }
  }
  attr {
    key: "value"
    value {
      tensor {
        dtype: DT_INT32
        tensor_shape {
          dim {
            size: 4
          }
        }
        tensor_content: "\000\000\000\000\001\000\000\000\002\000\000\000\003\000\000\000"
      }
    }
  }
}
node {
  name: "SASFieldNet/f_deconv3_1/kernel/Regularizer/Sum"
  op: "Sum"
  input: "SASFieldNet/f_deconv3_1/kernel/Regularizer/Square"
  input: "SASFieldNet/f_deconv3_1/kernel/Regularizer/Const"
  attr {
    key: "T"
    value {
      type: DT_FLOAT
    }
  }
  attr {
    key: "Tidx"
    value {
      type: DT_INT32
    }
  }
  attr {
    key: "keep_dims"
    value {
      b: false
    }
  }
}
node {
  name: "SASFieldNet/f_deconv3_1/kernel/Regularizer/mul/x"
  op: "Const"
  attr {
    key: "dtype"
    value {
      type: DT_FLOAT
    }
  }
  attr {
    key: "value"
    value {
      tensor {
        dtype: DT_FLOAT
        tensor_shape {
        }
        float_val: 0.0002500000118743628
      }
    }
  }
}
node {
  name: "SASFieldNet/f_deconv3_1/kernel/Regularizer/mul"
  op: "Mul"
  input: "SASFieldNet/f_deconv3_1/kernel/Regularizer/mul/x"
  input: "SASFieldNet/f_deconv3_1/kernel/Regularizer/Sum"
  attr {
    key: "T"
    value {
      type: DT_FLOAT
    }
  }
}
node {
  name: "SASFieldNet/f_deconv3_1/biases/Initializer/zeros"
  op: "Const"
  attr {
    key: "_class"
    value {
      list {
        s: "loc:@SASFieldNet/f_deconv3_1/biases"
      }
    }
  }
  attr {
    key: "dtype"
    value {
      type: DT_FLOAT
    }
  }
  attr {
    key: "value"
    value {
      tensor {
        dtype: DT_FLOAT
        tensor_shape {
          dim {
            size: 64
          }
        }
        float_val: 0.0
      }
    }
  }
}
node {
  name: "SASFieldNet/f_deconv3_1/biases"
  op: "VarHandleOp"
  attr {
    key: "_class"
    value {
      list {
        s: "loc:@SASFieldNet/f_deconv3_1/biases"
      }
    }
  }
  attr {
    key: "allowed_devices"
    value {
      list {
      }
    }
  }
  attr {
    key: "container"
    value {
      s: ""
    }
  }
  attr {
    key: "dtype"
    value {
      type: DT_FLOAT
    }
  }
  attr {
    key: "shape"
    value {
      shape {
        dim {
          size: 64
        }
      }
    }
  }
  attr {
    key: "shared_name"
    value {
      s: "SASFieldNet/f_deconv3_1/biases"
    }
  }
}
node {
  name: "SASFieldNet/f_deconv3_1/biases/IsInitialized/VarIsInitializedOp"
  op: "VarIsInitializedOp"
  input: "SASFieldNet/f_deconv3_1/biases"
}
node {
  name: "SASFieldNet/f_deconv3_1/biases/Assign"
  op: "AssignVariableOp"
  input: "SASFieldNet/f_deconv3_1/biases"
  input: "SASFieldNet/f_deconv3_1/biases/Initializer/zeros"
  attr {
    key: "dtype"
    value {
      type: DT_FLOAT
    }
  }
}
node {
  name: "SASFieldNet/f_deconv3_1/biases/Read/ReadVariableOp"
  op: "ReadVariableOp"
  input: "SASFieldNet/f_deconv3_1/biases"
  attr {
    key: "dtype"
    value {
      type: DT_FLOAT
    }
  }
}
node {
  name: "SASFieldNet/f_deconv3_1/Shape"
  op: "Shape"
  input: "SASFieldNet/f_conv6/Relu"
  attr {
    key: "T"
    value {
      type: DT_FLOAT
    }
  }
  attr {
    key: "out_type"
    value {
      type: DT_INT32
    }
  }
}
node {
  name: "SASFieldNet/f_deconv3_1/strided_slice/stack"
  op: "Const"
  attr {
    key: "dtype"
    value {
      type: DT_INT32
    }
  }
  attr {
    key: "value"
    value {
      tensor {
        dtype: DT_INT32
        tensor_shape {
          dim {
            size: 1
          }
        }
        int_val: 0
      }
    }
  }
}
node {
  name: "SASFieldNet/f_deconv3_1/strided_slice/stack_1"
  op: "Const"
  attr {
    key: "dtype"
    value {
      type: DT_INT32
    }
  }
  attr {
    key: "value"
    value {
      tensor {
        dtype: DT_INT32
        tensor_shape {
          dim {
            size: 1
          }
        }
        int_val: 1
      }
    }
  }
}
node {
  name: "SASFieldNet/f_deconv3_1/strided_slice/stack_2"
  op: "Const"
  attr {
    key: "dtype"
    value {
      type: DT_INT32
    }
  }
  attr {
    key: "value"
    value {
      tensor {
        dtype: DT_INT32
        tensor_shape {
          dim {
            size: 1
          }
        }
        int_val: 1
      }
    }
  }
}
node {
  name: "SASFieldNet/f_deconv3_1/strided_slice"
  op: "StridedSlice"
  input: "SASFieldNet/f_deconv3_1/Shape"
  input: "SASFieldNet/f_deconv3_1/strided_slice/stack"
  input: "SASFieldNet/f_deconv3_1/strided_slice/stack_1"
  input: "SASFieldNet/f_deconv3_1/strided_slice/stack_2"
  attr {
    key: "Index"
    value {
      type: DT_INT32
    }
  }
  attr {
    key: "T"
    value {
      type: DT_INT32
    }
  }
  attr {
    key: "begin_mask"
    value {
      i: 0
    }
  }
  attr {
    key: "ellipsis_mask"
    value {
      i: 0
    }
  }
  attr {
    key: "end_mask"
    value {
      i: 0
    }
  }
  attr {
    key: "new_axis_mask"
    value {
      i: 0
    }
  }
  attr {
    key: "shrink_axis_mask"
    value {
      i: 1
    }
  }
}
node {
  name: "SASFieldNet/f_deconv3_1/strided_slice_1/stack"
  op: "Const"
  attr {
    key: "dtype"
    value {
      type: DT_INT32
    }
  }
  attr {
    key: "value"
    value {
      tensor {
        dtype: DT_INT32
        tensor_shape {
          dim {
            size: 1
          }
        }
        int_val: 1
      }
    }
  }
}
node {
  name: "SASFieldNet/f_deconv3_1/strided_slice_1/stack_1"
  op: "Const"
  attr {
    key: "dtype"
    value {
      type: DT_INT32
    }
  }
  attr {
    key: "value"
    value {
      tensor {
        dtype: DT_INT32
        tensor_shape {
          dim {
            size: 1
          }
        }
        int_val: 2
      }
    }
  }
}
node {
  name: "SASFieldNet/f_deconv3_1/strided_slice_1/stack_2"
  op: "Const"
  attr {
    key: "dtype"
    value {
      type: DT_INT32
    }
  }
  attr {
    key: "value"
    value {
      tensor {
        dtype: DT_INT32
        tensor_shape {
          dim {
            size: 1
          }
        }
        int_val: 1
      }
    }
  }
}
node {
  name: "SASFieldNet/f_deconv3_1/strided_slice_1"
  op: "StridedSlice"
  input: "SASFieldNet/f_deconv3_1/Shape"
  input: "SASFieldNet/f_deconv3_1/strided_slice_1/stack"
  input: "SASFieldNet/f_deconv3_1/strided_slice_1/stack_1"
  input: "SASFieldNet/f_deconv3_1/strided_slice_1/stack_2"
  attr {
    key: "Index"
    value {
      type: DT_INT32
    }
  }
  attr {
    key: "T"
    value {
      type: DT_INT32
    }
  }
  attr {
    key: "begin_mask"
    value {
      i: 0
    }
  }
  attr {
    key: "ellipsis_mask"
    value {
      i: 0
    }
  }
  attr {
    key: "end_mask"
    value {
      i: 0
    }
  }
  attr {
    key: "new_axis_mask"
    value {
      i: 0
    }
  }
  attr {
    key: "shrink_axis_mask"
    value {
      i: 1
    }
  }
}
node {
  name: "SASFieldNet/f_deconv3_1/strided_slice_2/stack"
  op: "Const"
  attr {
    key: "dtype"
    value {
      type: DT_INT32
    }
  }
  attr {
    key: "value"
    value {
      tensor {
        dtype: DT_INT32
        tensor_shape {
          dim {
            size: 1
          }
        }
        int_val: 2
      }
    }
  }
}
node {
  name: "SASFieldNet/f_deconv3_1/strided_slice_2/stack_1"
  op: "Const"
  attr {
    key: "dtype"
    value {
      type: DT_INT32
    }
  }
  attr {
    key: "value"
    value {
      tensor {
        dtype: DT_INT32
        tensor_shape {
          dim {
            size: 1
          }
        }
        int_val: 3
      }
    }
  }
}
node {
  name: "SASFieldNet/f_deconv3_1/strided_slice_2/stack_2"
  op: "Const"
  attr {
    key: "dtype"
    value {
      type: DT_INT32
    }
  }
  attr {
    key: "value"
    value {
      tensor {
        dtype: DT_INT32
        tensor_shape {
          dim {
            size: 1
          }
        }
        int_val: 1
      }
    }
  }
}
node {
  name: "SASFieldNet/f_deconv3_1/strided_slice_2"
  op: "StridedSlice"
  input: "SASFieldNet/f_deconv3_1/Shape"
  input: "SASFieldNet/f_deconv3_1/strided_slice_2/stack"
  input: "SASFieldNet/f_deconv3_1/strided_slice_2/stack_1"
  input: "SASFieldNet/f_deconv3_1/strided_slice_2/stack_2"
  attr {
    key: "Index"
    value {
      type: DT_INT32
    }
  }
  attr {
    key: "T"
    value {
      type: DT_INT32
    }
  }
  attr {
    key: "begin_mask"
    value {
      i: 0
    }
  }
  attr {
    key: "ellipsis_mask"
    value {
      i: 0
    }
  }
  attr {
    key: "end_mask"
    value {
      i: 0
    }
  }
  attr {
    key: "new_axis_mask"
    value {
      i: 0
    }
  }
  attr {
    key: "shrink_axis_mask"
    value {
      i: 1
    }
  }
}
node {
  name: "SASFieldNet/f_deconv3_1/mul/y"
  op: "Const"
  attr {
    key: "dtype"
    value {
      type: DT_INT32
    }
  }
  attr {
    key: "value"
    value {
      tensor {
        dtype: DT_INT32
        tensor_shape {
        }
        int_val: 2
      }
    }
  }
}
node {
  name: "SASFieldNet/f_deconv3_1/mul"
  op: "Mul"
  input: "SASFieldNet/f_deconv3_1/strided_slice_1"
  input: "SASFieldNet/f_deconv3_1/mul/y"
  attr {
    key: "T"
    value {
      type: DT_INT32
    }
  }
}
node {
  name: "SASFieldNet/f_deconv3_1/mul_1/y"
  op: "Const"
  attr {
    key: "dtype"
    value {
      type: DT_INT32
    }
  }
  attr {
    key: "value"
    value {
      tensor {
        dtype: DT_INT32
        tensor_shape {
        }
        int_val: 2
      }
    }
  }
}
node {
  name: "SASFieldNet/f_deconv3_1/mul_1"
  op: "Mul"
  input: "SASFieldNet/f_deconv3_1/strided_slice_2"
  input: "SASFieldNet/f_deconv3_1/mul_1/y"
  attr {
    key: "T"
    value {
      type: DT_INT32
    }
  }
}
node {
  name: "SASFieldNet/f_deconv3_1/stack/3"
  op: "Const"
  attr {
    key: "dtype"
    value {
      type: DT_INT32
    }
  }
  attr {
    key: "value"
    value {
      tensor {
        dtype: DT_INT32
        tensor_shape {
        }
        int_val: 64
      }
    }
  }
}
node {
  name: "SASFieldNet/f_deconv3_1/stack"
  op: "Pack"
  input: "SASFieldNet/f_deconv3_1/strided_slice"
  input: "SASFieldNet/f_deconv3_1/mul"
  input: "SASFieldNet/f_deconv3_1/mul_1"
  input: "SASFieldNet/f_deconv3_1/stack/3"
  attr {
    key: "N"
    value {
      i: 4
    }
  }
  attr {
    key: "T"
    value {
      type: DT_INT32
    }
  }
  attr {
    key: "axis"
    value {
      i: 0
    }
  }
}
node {
  name: "SASFieldNet/f_deconv3_1/strided_slice_3/stack"
  op: "Const"
  attr {
    key: "dtype"
    value {
      type: DT_INT32
    }
  }
  attr {
    key: "value"
    value {
      tensor {
        dtype: DT_INT32
        tensor_shape {
          dim {
            size: 1
          }
        }
        int_val: 0
      }
    }
  }
}
node {
  name: "SASFieldNet/f_deconv3_1/strided_slice_3/stack_1"
  op: "Const"
  attr {
    key: "dtype"
    value {
      type: DT_INT32
    }
  }
  attr {
    key: "value"
    value {
      tensor {
        dtype: DT_INT32
        tensor_shape {
          dim {
            size: 1
          }
        }
        int_val: 1
      }
    }
  }
}
node {
  name: "SASFieldNet/f_deconv3_1/strided_slice_3/stack_2"
  op: "Const"
  attr {
    key: "dtype"
    value {
      type: DT_INT32
    }
  }
  attr {
    key: "value"
    value {
      tensor {
        dtype: DT_INT32
        tensor_shape {
          dim {
            size: 1
          }
        }
        int_val: 1
      }
    }
  }
}
node {
  name: "SASFieldNet/f_deconv3_1/strided_slice_3"
  op: "StridedSlice"
  input: "SASFieldNet/f_deconv3_1/stack"
  input: "SASFieldNet/f_deconv3_1/strided_slice_3/stack"
  input: "SASFieldNet/f_deconv3_1/strided_slice_3/stack_1"
  input: "SASFieldNet/f_deconv3_1/strided_slice_3/stack_2"
  attr {
    key: "Index"
    value {
      type: DT_INT32
    }
  }
  attr {
    key: "T"
    value {
      type: DT_INT32
    }
  }
  attr {
    key: "begin_mask"
    value {
      i: 0
    }
  }
  attr {
    key: "ellipsis_mask"
    value {
      i: 0
    }
  }
  attr {
    key: "end_mask"
    value {
      i: 0
    }
  }
  attr {
    key: "new_axis_mask"
    value {
      i: 0
    }
  }
  attr {
    key: "shrink_axis_mask"
    value {
      i: 1
    }
  }
}
node {
  name: "SASFieldNet/f_deconv3_1/conv2d_transpose/ReadVariableOp"
  op: "ReadVariableOp"
  input: "SASFieldNet/f_deconv3_1/weights"
  attr {
    key: "dtype"
    value {
      type: DT_FLOAT
    }
  }
}
node {
  name: "SASFieldNet/f_deconv3_1/conv2d_transpose"
  op: "Conv2DBackpropInput"
  input: "SASFieldNet/f_deconv3_1/stack"
  input: "SASFieldNet/f_deconv3_1/conv2d_transpose/ReadVariableOp"
  input: "SASFieldNet/f_conv6/Relu"
  attr {
    key: "T"
    value {
      type: DT_FLOAT
    }
  }
  attr {
    key: "data_format"
    value {
      s: "NHWC"
    }
  }
  attr {
    key: "dilations"
    value {
      list {
        i: 1
        i: 1
        i: 1
        i: 1
      }
    }
  }
  attr {
    key: "explicit_paddings"
    value {
      list {
      }
    }
  }
  attr {
    key: "padding"
    value {
      s: "SAME"
    }
  }
  attr {
    key: "strides"
    value {
      list {
        i: 1
        i: 2
        i: 2
        i: 1
      }
    }
  }
  attr {
    key: "use_cudnn_on_gpu"
    value {
      b: true
    }
  }
}
node {
  name: "SASFieldNet/f_deconv3_1/BiasAdd/ReadVariableOp"
  op: "ReadVariableOp"
  input: "SASFieldNet/f_deconv3_1/biases"
  attr {
    key: "dtype"
    value {
      type: DT_FLOAT
    }
  }
}
node {
  name: "SASFieldNet/f_deconv3_1/BiasAdd"
  op: "BiasAdd"
  input: "SASFieldNet/f_deconv3_1/conv2d_transpose"
  input: "SASFieldNet/f_deconv3_1/BiasAdd/ReadVariableOp"
  attr {
    key: "T"
    value {
      type: DT_FLOAT
    }
  }
  attr {
    key: "data_format"
    value {
      s: "NHWC"
    }
  }
}
node {
  name: "SASFieldNet/f_concat3/concat/axis"
  op: "Const"
  attr {
    key: "dtype"
    value {
      type: DT_INT32
    }
  }
  attr {
    key: "value"
    value {
      tensor {
        dtype: DT_INT32
        tensor_shape {
        }
        int_val: 3
      }
    }
  }
}
node {
  name: "SASFieldNet/f_concat3/concat"
  op: "ConcatV2"
  input: "SASFieldNet/f_conv4/Relu"
  input: "SASFieldNet/f_deconv3_1/BiasAdd"
  input: "SASFieldNet/f_concat3/concat/axis"
  attr {
    key: "N"
    value {
      i: 2
    }
  }
  attr {
    key: "T"
    value {
      type: DT_FLOAT
    }
  }
  attr {
    key: "Tidx"
    value {
      type: DT_INT32
    }
  }
}
node {
  name: "SASFieldNet/f_deconv3_2/weights/Initializer/truncated_normal/shape"
  op: "Const"
  attr {
    key: "_class"
    value {
      list {
        s: "loc:@SASFieldNet/f_deconv3_2/weights"
      }
    }
  }
  attr {
    key: "dtype"
    value {
      type: DT_INT32
    }
  }
  attr {
    key: "value"
    value {
      tensor {
        dtype: DT_INT32
        tensor_shape {
          dim {
            size: 4
          }
        }
        tensor_content: "\003\000\000\000\003\000\000\000\200\000\000\000@\000\000\000"
      }
    }
  }
}
node {
  name: "SASFieldNet/f_deconv3_2/weights/Initializer/truncated_normal/mean"
  op: "Const"
  attr {
    key: "_class"
    value {
      list {
        s: "loc:@SASFieldNet/f_deconv3_2/weights"
      }
    }
  }
  attr {
    key: "dtype"
    value {
      type: DT_FLOAT
    }
  }
  attr {
    key: "value"
    value {
      tensor {
        dtype: DT_FLOAT
        tensor_shape {
        }
        float_val: 0.0
      }
    }
  }
}
node {
  name: "SASFieldNet/f_deconv3_2/weights/Initializer/truncated_normal/stddev"
  op: "Const"
  attr {
    key: "_class"
    value {
      list {
        s: "loc:@SASFieldNet/f_deconv3_2/weights"
      }
    }
  }
  attr {
    key: "dtype"
    value {
      type: DT_FLOAT
    }
  }
  attr {
    key: "value"
    value {
      tensor {
        dtype: DT_FLOAT
        tensor_shape {
        }
        float_val: 0.009999999776482582
      }
    }
  }
}
node {
  name: "SASFieldNet/f_deconv3_2/weights/Initializer/truncated_normal/TruncatedNormal"
  op: "TruncatedNormal"
  input: "SASFieldNet/f_deconv3_2/weights/Initializer/truncated_normal/shape"
  attr {
    key: "T"
    value {
      type: DT_INT32
    }
  }
  attr {
    key: "_class"
    value {
      list {
        s: "loc:@SASFieldNet/f_deconv3_2/weights"
      }
    }
  }
  attr {
    key: "dtype"
    value {
      type: DT_FLOAT
    }
  }
  attr {
    key: "seed"
    value {
      i: 0
    }
  }
  attr {
    key: "seed2"
    value {
      i: 0
    }
  }
}
node {
  name: "SASFieldNet/f_deconv3_2/weights/Initializer/truncated_normal/mul"
  op: "Mul"
  input: "SASFieldNet/f_deconv3_2/weights/Initializer/truncated_normal/TruncatedNormal"
  input: "SASFieldNet/f_deconv3_2/weights/Initializer/truncated_normal/stddev"
  attr {
    key: "T"
    value {
      type: DT_FLOAT
    }
  }
  attr {
    key: "_class"
    value {
      list {
        s: "loc:@SASFieldNet/f_deconv3_2/weights"
      }
    }
  }
}
node {
  name: "SASFieldNet/f_deconv3_2/weights/Initializer/truncated_normal"
  op: "AddV2"
  input: "SASFieldNet/f_deconv3_2/weights/Initializer/truncated_normal/mul"
  input: "SASFieldNet/f_deconv3_2/weights/Initializer/truncated_normal/mean"
  attr {
    key: "T"
    value {
      type: DT_FLOAT
    }
  }
  attr {
    key: "_class"
    value {
      list {
        s: "loc:@SASFieldNet/f_deconv3_2/weights"
      }
    }
  }
}
node {
  name: "SASFieldNet/f_deconv3_2/weights"
  op: "VarHandleOp"
  attr {
    key: "_class"
    value {
      list {
        s: "loc:@SASFieldNet/f_deconv3_2/weights"
      }
    }
  }
  attr {
    key: "allowed_devices"
    value {
      list {
      }
    }
  }
  attr {
    key: "container"
    value {
      s: ""
    }
  }
  attr {
    key: "dtype"
    value {
      type: DT_FLOAT
    }
  }
  attr {
    key: "shape"
    value {
      shape {
        dim {
          size: 3
        }
        dim {
          size: 3
        }
        dim {
          size: 128
        }
        dim {
          size: 64
        }
      }
    }
  }
  attr {
    key: "shared_name"
    value {
      s: "SASFieldNet/f_deconv3_2/weights"
    }
  }
}
node {
  name: "SASFieldNet/f_deconv3_2/weights/IsInitialized/VarIsInitializedOp"
  op: "VarIsInitializedOp"
  input: "SASFieldNet/f_deconv3_2/weights"
}
node {
  name: "SASFieldNet/f_deconv3_2/weights/Assign"
  op: "AssignVariableOp"
  input: "SASFieldNet/f_deconv3_2/weights"
  input: "SASFieldNet/f_deconv3_2/weights/Initializer/truncated_normal"
  attr {
    key: "dtype"
    value {
      type: DT_FLOAT
    }
  }
}
node {
  name: "SASFieldNet/f_deconv3_2/weights/Read/ReadVariableOp"
  op: "ReadVariableOp"
  input: "SASFieldNet/f_deconv3_2/weights"
  attr {
    key: "dtype"
    value {
      type: DT_FLOAT
    }
  }
}
node {
  name: "SASFieldNet/f_deconv3_2/kernel/Regularizer/Square/ReadVariableOp"
  op: "ReadVariableOp"
  input: "SASFieldNet/f_deconv3_2/weights"
  attr {
    key: "dtype"
    value {
      type: DT_FLOAT
    }
  }
}
node {
  name: "SASFieldNet/f_deconv3_2/kernel/Regularizer/Square"
  op: "Square"
  input: "SASFieldNet/f_deconv3_2/kernel/Regularizer/Square/ReadVariableOp"
  attr {
    key: "T"
    value {
      type: DT_FLOAT
    }
  }
}
node {
  name: "SASFieldNet/f_deconv3_2/kernel/Regularizer/Const"
  op: "Const"
  attr {
    key: "dtype"
    value {
      type: DT_INT32
    }
  }
  attr {
    key: "value"
    value {
      tensor {
        dtype: DT_INT32
        tensor_shape {
          dim {
            size: 4
          }
        }
        tensor_content: "\000\000\000\000\001\000\000\000\002\000\000\000\003\000\000\000"
      }
    }
  }
}
node {
  name: "SASFieldNet/f_deconv3_2/kernel/Regularizer/Sum"
  op: "Sum"
  input: "SASFieldNet/f_deconv3_2/kernel/Regularizer/Square"
  input: "SASFieldNet/f_deconv3_2/kernel/Regularizer/Const"
  attr {
    key: "T"
    value {
      type: DT_FLOAT
    }
  }
  attr {
    key: "Tidx"
    value {
      type: DT_INT32
    }
  }
  attr {
    key: "keep_dims"
    value {
      b: false
    }
  }
}
node {
  name: "SASFieldNet/f_deconv3_2/kernel/Regularizer/mul/x"
  op: "Const"
  attr {
    key: "dtype"
    value {
      type: DT_FLOAT
    }
  }
  attr {
    key: "value"
    value {
      tensor {
        dtype: DT_FLOAT
        tensor_shape {
        }
        float_val: 0.0002500000118743628
      }
    }
  }
}
node {
  name: "SASFieldNet/f_deconv3_2/kernel/Regularizer/mul"
  op: "Mul"
  input: "SASFieldNet/f_deconv3_2/kernel/Regularizer/mul/x"
  input: "SASFieldNet/f_deconv3_2/kernel/Regularizer/Sum"
  attr {
    key: "T"
    value {
      type: DT_FLOAT
    }
  }
}
node {
  name: "SASFieldNet/f_deconv3_2/Conv2D/ReadVariableOp"
  op: "ReadVariableOp"
  input: "SASFieldNet/f_deconv3_2/weights"
  attr {
    key: "dtype"
    value {
      type: DT_FLOAT
    }
  }
}
node {
  name: "SASFieldNet/f_deconv3_2/Conv2D"
  op: "Conv2D"
  input: "SASFieldNet/f_concat3/concat"
  input: "SASFieldNet/f_deconv3_2/Conv2D/ReadVariableOp"
  attr {
    key: "T"
    value {
      type: DT_FLOAT
    }
  }
  attr {
    key: "data_format"
    value {
      s: "NHWC"
    }
  }
  attr {
    key: "dilations"
    value {
      list {
        i: 1
        i: 1
        i: 1
        i: 1
      }
    }
  }
  attr {
    key: "explicit_paddings"
    value {
      list {
      }
    }
  }
  attr {
    key: "padding"
    value {
      s: "SAME"
    }
  }
  attr {
    key: "strides"
    value {
      list {
        i: 1
        i: 1
        i: 1
        i: 1
      }
    }
  }
  attr {
    key: "use_cudnn_on_gpu"
    value {
      b: true
    }
  }
}
node {
  name: "SASFieldNet/f_deconv3_2/BatchNorm/Const"
  op: "Const"
  attr {
    key: "dtype"
    value {
      type: DT_FLOAT
    }
  }
  attr {
    key: "value"
    value {
      tensor {
        dtype: DT_FLOAT
        tensor_shape {
          dim {
            size: 64
          }
        }
        float_val: 1.0
      }
    }
  }
}
node {
  name: "SASFieldNet/f_deconv3_2/BatchNorm/beta/Initializer/zeros"
  op: "Const"
  attr {
    key: "_class"
    value {
      list {
        s: "loc:@SASFieldNet/f_deconv3_2/BatchNorm/beta"
      }
    }
  }
  attr {
    key: "dtype"
    value {
      type: DT_FLOAT
    }
  }
  attr {
    key: "value"
    value {
      tensor {
        dtype: DT_FLOAT
        tensor_shape {
          dim {
            size: 64
          }
        }
        float_val: 0.0
      }
    }
  }
}
node {
  name: "SASFieldNet/f_deconv3_2/BatchNorm/beta"
  op: "VarHandleOp"
  attr {
    key: "_class"
    value {
      list {
        s: "loc:@SASFieldNet/f_deconv3_2/BatchNorm/beta"
      }
    }
  }
  attr {
    key: "allowed_devices"
    value {
      list {
      }
    }
  }
  attr {
    key: "container"
    value {
      s: ""
    }
  }
  attr {
    key: "dtype"
    value {
      type: DT_FLOAT
    }
  }
  attr {
    key: "shape"
    value {
      shape {
        dim {
          size: 64
        }
      }
    }
  }
  attr {
    key: "shared_name"
    value {
      s: "SASFieldNet/f_deconv3_2/BatchNorm/beta"
    }
  }
}
node {
  name: "SASFieldNet/f_deconv3_2/BatchNorm/beta/IsInitialized/VarIsInitializedOp"
  op: "VarIsInitializedOp"
  input: "SASFieldNet/f_deconv3_2/BatchNorm/beta"
}
node {
  name: "SASFieldNet/f_deconv3_2/BatchNorm/beta/Assign"
  op: "AssignVariableOp"
  input: "SASFieldNet/f_deconv3_2/BatchNorm/beta"
  input: "SASFieldNet/f_deconv3_2/BatchNorm/beta/Initializer/zeros"
  attr {
    key: "dtype"
    value {
      type: DT_FLOAT
    }
  }
}
node {
  name: "SASFieldNet/f_deconv3_2/BatchNorm/beta/Read/ReadVariableOp"
  op: "ReadVariableOp"
  input: "SASFieldNet/f_deconv3_2/BatchNorm/beta"
  attr {
    key: "dtype"
    value {
      type: DT_FLOAT
    }
  }
}
node {
  name: "SASFieldNet/f_deconv3_2/BatchNorm/moving_mean/Initializer/zeros"
  op: "Const"
  attr {
    key: "_class"
    value {
      list {
        s: "loc:@SASFieldNet/f_deconv3_2/BatchNorm/moving_mean"
      }
    }
  }
  attr {
    key: "dtype"
    value {
      type: DT_FLOAT
    }
  }
  attr {
    key: "value"
    value {
      tensor {
        dtype: DT_FLOAT
        tensor_shape {
          dim {
            size: 64
          }
        }
        float_val: 0.0
      }
    }
  }
}
node {
  name: "SASFieldNet/f_deconv3_2/BatchNorm/moving_mean"
  op: "VarHandleOp"
  attr {
    key: "_class"
    value {
      list {
        s: "loc:@SASFieldNet/f_deconv3_2/BatchNorm/moving_mean"
      }
    }
  }
  attr {
    key: "allowed_devices"
    value {
      list {
      }
    }
  }
  attr {
    key: "container"
    value {
      s: ""
    }
  }
  attr {
    key: "dtype"
    value {
      type: DT_FLOAT
    }
  }
  attr {
    key: "shape"
    value {
      shape {
        dim {
          size: 64
        }
      }
    }
  }
  attr {
    key: "shared_name"
    value {
      s: "SASFieldNet/f_deconv3_2/BatchNorm/moving_mean"
    }
  }
}
node {
  name: "SASFieldNet/f_deconv3_2/BatchNorm/moving_mean/IsInitialized/VarIsInitializedOp"
  op: "VarIsInitializedOp"
  input: "SASFieldNet/f_deconv3_2/BatchNorm/moving_mean"
}
node {
  name: "SASFieldNet/f_deconv3_2/BatchNorm/moving_mean/Assign"
  op: "AssignVariableOp"
  input: "SASFieldNet/f_deconv3_2/BatchNorm/moving_mean"
  input: "SASFieldNet/f_deconv3_2/BatchNorm/moving_mean/Initializer/zeros"
  attr {
    key: "dtype"
    value {
      type: DT_FLOAT
    }
  }
}
node {
  name: "SASFieldNet/f_deconv3_2/BatchNorm/moving_mean/Read/ReadVariableOp"
  op: "ReadVariableOp"
  input: "SASFieldNet/f_deconv3_2/BatchNorm/moving_mean"
  attr {
    key: "dtype"
    value {
      type: DT_FLOAT
    }
  }
}
node {
  name: "SASFieldNet/f_deconv3_2/BatchNorm/moving_variance/Initializer/ones"
  op: "Const"
  attr {
    key: "_class"
    value {
      list {
        s: "loc:@SASFieldNet/f_deconv3_2/BatchNorm/moving_variance"
      }
    }
  }
  attr {
    key: "dtype"
    value {
      type: DT_FLOAT
    }
  }
  attr {
    key: "value"
    value {
      tensor {
        dtype: DT_FLOAT
        tensor_shape {
          dim {
            size: 64
          }
        }
        float_val: 1.0
      }
    }
  }
}
node {
  name: "SASFieldNet/f_deconv3_2/BatchNorm/moving_variance"
  op: "VarHandleOp"
  attr {
    key: "_class"
    value {
      list {
        s: "loc:@SASFieldNet/f_deconv3_2/BatchNorm/moving_variance"
      }
    }
  }
  attr {
    key: "allowed_devices"
    value {
      list {
      }
    }
  }
  attr {
    key: "container"
    value {
      s: ""
    }
  }
  attr {
    key: "dtype"
    value {
      type: DT_FLOAT
    }
  }
  attr {
    key: "shape"
    value {
      shape {
        dim {
          size: 64
        }
      }
    }
  }
  attr {
    key: "shared_name"
    value {
      s: "SASFieldNet/f_deconv3_2/BatchNorm/moving_variance"
    }
  }
}
node {
  name: "SASFieldNet/f_deconv3_2/BatchNorm/moving_variance/IsInitialized/VarIsInitializedOp"
  op: "VarIsInitializedOp"
  input: "SASFieldNet/f_deconv3_2/BatchNorm/moving_variance"
}
node {
  name: "SASFieldNet/f_deconv3_2/BatchNorm/moving_variance/Assign"
  op: "AssignVariableOp"
  input: "SASFieldNet/f_deconv3_2/BatchNorm/moving_variance"
  input: "SASFieldNet/f_deconv3_2/BatchNorm/moving_variance/Initializer/ones"
  attr {
    key: "dtype"
    value {
      type: DT_FLOAT
    }
  }
}
node {
  name: "SASFieldNet/f_deconv3_2/BatchNorm/moving_variance/Read/ReadVariableOp"
  op: "ReadVariableOp"
  input: "SASFieldNet/f_deconv3_2/BatchNorm/moving_variance"
  attr {
    key: "dtype"
    value {
      type: DT_FLOAT
    }
  }
}
node {
  name: "SASFieldNet/f_deconv3_2/BatchNorm/ReadVariableOp"
  op: "ReadVariableOp"
  input: "SASFieldNet/f_deconv3_2/BatchNorm/beta"
  attr {
    key: "dtype"
    value {
      type: DT_FLOAT
    }
  }
}
node {
  name: "SASFieldNet/f_deconv3_2/BatchNorm/FusedBatchNormV3/ReadVariableOp"
  op: "ReadVariableOp"
  input: "SASFieldNet/f_deconv3_2/BatchNorm/moving_mean"
  attr {
    key: "dtype"
    value {
      type: DT_FLOAT
    }
  }
}
node {
  name: "SASFieldNet/f_deconv3_2/BatchNorm/FusedBatchNormV3/ReadVariableOp_1"
  op: "ReadVariableOp"
  input: "SASFieldNet/f_deconv3_2/BatchNorm/moving_variance"
  attr {
    key: "dtype"
    value {
      type: DT_FLOAT
    }
  }
}
node {
  name: "SASFieldNet/f_deconv3_2/BatchNorm/FusedBatchNormV3"
  op: "FusedBatchNormV3"
  input: "SASFieldNet/f_deconv3_2/Conv2D"
  input: "SASFieldNet/f_deconv3_2/BatchNorm/Const"
  input: "SASFieldNet/f_deconv3_2/BatchNorm/ReadVariableOp"
  input: "SASFieldNet/f_deconv3_2/BatchNorm/FusedBatchNormV3/ReadVariableOp"
  input: "SASFieldNet/f_deconv3_2/BatchNorm/FusedBatchNormV3/ReadVariableOp_1"
  attr {
    key: "T"
    value {
      type: DT_FLOAT
    }
  }
  attr {
    key: "U"
    value {
      type: DT_FLOAT
    }
  }
  attr {
    key: "data_format"
    value {
      s: "NHWC"
    }
  }
  attr {
    key: "epsilon"
    value {
      f: 0.0010000000474974513
    }
  }
  attr {
    key: "exponential_avg_factor"
    value {
      f: 1.0
    }
  }
  attr {
    key: "is_training"
    value {
      b: false
    }
  }
}
node {
  name: "SASFieldNet/f_deconv3_2/Relu"
  op: "Relu"
  input: "SASFieldNet/f_deconv3_2/BatchNorm/FusedBatchNormV3"
  attr {
    key: "T"
    value {
      type: DT_FLOAT
    }
  }
}
node {
  name: "SASFieldNet/f_deconv3_3/weights/Initializer/truncated_normal/shape"
  op: "Const"
  attr {
    key: "_class"
    value {
      list {
        s: "loc:@SASFieldNet/f_deconv3_3/weights"
      }
    }
  }
  attr {
    key: "dtype"
    value {
      type: DT_INT32
    }
  }
  attr {
    key: "value"
    value {
      tensor {
        dtype: DT_INT32
        tensor_shape {
          dim {
            size: 4
          }
        }
        tensor_content: "\003\000\000\000\003\000\000\000@\000\000\000@\000\000\000"
      }
    }
  }
}
node {
  name: "SASFieldNet/f_deconv3_3/weights/Initializer/truncated_normal/mean"
  op: "Const"
  attr {
    key: "_class"
    value {
      list {
        s: "loc:@SASFieldNet/f_deconv3_3/weights"
      }
    }
  }
  attr {
    key: "dtype"
    value {
      type: DT_FLOAT
    }
  }
  attr {
    key: "value"
    value {
      tensor {
        dtype: DT_FLOAT
        tensor_shape {
        }
        float_val: 0.0
      }
    }
  }
}
node {
  name: "SASFieldNet/f_deconv3_3/weights/Initializer/truncated_normal/stddev"
  op: "Const"
  attr {
    key: "_class"
    value {
      list {
        s: "loc:@SASFieldNet/f_deconv3_3/weights"
      }
    }
  }
  attr {
    key: "dtype"
    value {
      type: DT_FLOAT
    }
  }
  attr {
    key: "value"
    value {
      tensor {
        dtype: DT_FLOAT
        tensor_shape {
        }
        float_val: 0.009999999776482582
      }
    }
  }
}
node {
  name: "SASFieldNet/f_deconv3_3/weights/Initializer/truncated_normal/TruncatedNormal"
  op: "TruncatedNormal"
  input: "SASFieldNet/f_deconv3_3/weights/Initializer/truncated_normal/shape"
  attr {
    key: "T"
    value {
      type: DT_INT32
    }
  }
  attr {
    key: "_class"
    value {
      list {
        s: "loc:@SASFieldNet/f_deconv3_3/weights"
      }
    }
  }
  attr {
    key: "dtype"
    value {
      type: DT_FLOAT
    }
  }
  attr {
    key: "seed"
    value {
      i: 0
    }
  }
  attr {
    key: "seed2"
    value {
      i: 0
    }
  }
}
node {
  name: "SASFieldNet/f_deconv3_3/weights/Initializer/truncated_normal/mul"
  op: "Mul"
  input: "SASFieldNet/f_deconv3_3/weights/Initializer/truncated_normal/TruncatedNormal"
  input: "SASFieldNet/f_deconv3_3/weights/Initializer/truncated_normal/stddev"
  attr {
    key: "T"
    value {
      type: DT_FLOAT
    }
  }
  attr {
    key: "_class"
    value {
      list {
        s: "loc:@SASFieldNet/f_deconv3_3/weights"
      }
    }
  }
}
node {
  name: "SASFieldNet/f_deconv3_3/weights/Initializer/truncated_normal"
  op: "AddV2"
  input: "SASFieldNet/f_deconv3_3/weights/Initializer/truncated_normal/mul"
  input: "SASFieldNet/f_deconv3_3/weights/Initializer/truncated_normal/mean"
  attr {
    key: "T"
    value {
      type: DT_FLOAT
    }
  }
  attr {
    key: "_class"
    value {
      list {
        s: "loc:@SASFieldNet/f_deconv3_3/weights"
      }
    }
  }
}
node {
  name: "SASFieldNet/f_deconv3_3/weights"
  op: "VarHandleOp"
  attr {
    key: "_class"
    value {
      list {
        s: "loc:@SASFieldNet/f_deconv3_3/weights"
      }
    }
  }
  attr {
    key: "allowed_devices"
    value {
      list {
      }
    }
  }
  attr {
    key: "container"
    value {
      s: ""
    }
  }
  attr {
    key: "dtype"
    value {
      type: DT_FLOAT
    }
  }
  attr {
    key: "shape"
    value {
      shape {
        dim {
          size: 3
        }
        dim {
          size: 3
        }
        dim {
          size: 64
        }
        dim {
          size: 64
        }
      }
    }
  }
  attr {
    key: "shared_name"
    value {
      s: "SASFieldNet/f_deconv3_3/weights"
    }
  }
}
node {
  name: "SASFieldNet/f_deconv3_3/weights/IsInitialized/VarIsInitializedOp"
  op: "VarIsInitializedOp"
  input: "SASFieldNet/f_deconv3_3/weights"
}
node {
  name: "SASFieldNet/f_deconv3_3/weights/Assign"
  op: "AssignVariableOp"
  input: "SASFieldNet/f_deconv3_3/weights"
  input: "SASFieldNet/f_deconv3_3/weights/Initializer/truncated_normal"
  attr {
    key: "dtype"
    value {
      type: DT_FLOAT
    }
  }
}
node {
  name: "SASFieldNet/f_deconv3_3/weights/Read/ReadVariableOp"
  op: "ReadVariableOp"
  input: "SASFieldNet/f_deconv3_3/weights"
  attr {
    key: "dtype"
    value {
      type: DT_FLOAT
    }
  }
}
node {
  name: "SASFieldNet/f_deconv3_3/kernel/Regularizer/Square/ReadVariableOp"
  op: "ReadVariableOp"
  input: "SASFieldNet/f_deconv3_3/weights"
  attr {
    key: "dtype"
    value {
      type: DT_FLOAT
    }
  }
}
node {
  name: "SASFieldNet/f_deconv3_3/kernel/Regularizer/Square"
  op: "Square"
  input: "SASFieldNet/f_deconv3_3/kernel/Regularizer/Square/ReadVariableOp"
  attr {
    key: "T"
    value {
      type: DT_FLOAT
    }
  }
}
node {
  name: "SASFieldNet/f_deconv3_3/kernel/Regularizer/Const"
  op: "Const"
  attr {
    key: "dtype"
    value {
      type: DT_INT32
    }
  }
  attr {
    key: "value"
    value {
      tensor {
        dtype: DT_INT32
        tensor_shape {
          dim {
            size: 4
          }
        }
        tensor_content: "\000\000\000\000\001\000\000\000\002\000\000\000\003\000\000\000"
      }
    }
  }
}
node {
  name: "SASFieldNet/f_deconv3_3/kernel/Regularizer/Sum"
  op: "Sum"
  input: "SASFieldNet/f_deconv3_3/kernel/Regularizer/Square"
  input: "SASFieldNet/f_deconv3_3/kernel/Regularizer/Const"
  attr {
    key: "T"
    value {
      type: DT_FLOAT
    }
  }
  attr {
    key: "Tidx"
    value {
      type: DT_INT32
    }
  }
  attr {
    key: "keep_dims"
    value {
      b: false
    }
  }
}
node {
  name: "SASFieldNet/f_deconv3_3/kernel/Regularizer/mul/x"
  op: "Const"
  attr {
    key: "dtype"
    value {
      type: DT_FLOAT
    }
  }
  attr {
    key: "value"
    value {
      tensor {
        dtype: DT_FLOAT
        tensor_shape {
        }
        float_val: 0.0002500000118743628
      }
    }
  }
}
node {
  name: "SASFieldNet/f_deconv3_3/kernel/Regularizer/mul"
  op: "Mul"
  input: "SASFieldNet/f_deconv3_3/kernel/Regularizer/mul/x"
  input: "SASFieldNet/f_deconv3_3/kernel/Regularizer/Sum"
  attr {
    key: "T"
    value {
      type: DT_FLOAT
    }
  }
}
node {
  name: "SASFieldNet/f_deconv3_3/Conv2D/ReadVariableOp"
  op: "ReadVariableOp"
  input: "SASFieldNet/f_deconv3_3/weights"
  attr {
    key: "dtype"
    value {
      type: DT_FLOAT
    }
  }
}
node {
  name: "SASFieldNet/f_deconv3_3/Conv2D"
  op: "Conv2D"
  input: "SASFieldNet/f_deconv3_2/Relu"
  input: "SASFieldNet/f_deconv3_3/Conv2D/ReadVariableOp"
  attr {
    key: "T"
    value {
      type: DT_FLOAT
    }
  }
  attr {
    key: "data_format"
    value {
      s: "NHWC"
    }
  }
  attr {
    key: "dilations"
    value {
      list {
        i: 1
        i: 1
        i: 1
        i: 1
      }
    }
  }
  attr {
    key: "explicit_paddings"
    value {
      list {
      }
    }
  }
  attr {
    key: "padding"
    value {
      s: "SAME"
    }
  }
  attr {
    key: "strides"
    value {
      list {
        i: 1
        i: 1
        i: 1
        i: 1
      }
    }
  }
  attr {
    key: "use_cudnn_on_gpu"
    value {
      b: true
    }
  }
}
node {
  name: "SASFieldNet/f_deconv3_3/BatchNorm/Const"
  op: "Const"
  attr {
    key: "dtype"
    value {
      type: DT_FLOAT
    }
  }
  attr {
    key: "value"
    value {
      tensor {
        dtype: DT_FLOAT
        tensor_shape {
          dim {
            size: 64
          }
        }
        float_val: 1.0
      }
    }
  }
}
node {
  name: "SASFieldNet/f_deconv3_3/BatchNorm/beta/Initializer/zeros"
  op: "Const"
  attr {
    key: "_class"
    value {
      list {
        s: "loc:@SASFieldNet/f_deconv3_3/BatchNorm/beta"
      }
    }
  }
  attr {
    key: "dtype"
    value {
      type: DT_FLOAT
    }
  }
  attr {
    key: "value"
    value {
      tensor {
        dtype: DT_FLOAT
        tensor_shape {
          dim {
            size: 64
          }
        }
        float_val: 0.0
      }
    }
  }
}
node {
  name: "SASFieldNet/f_deconv3_3/BatchNorm/beta"
  op: "VarHandleOp"
  attr {
    key: "_class"
    value {
      list {
        s: "loc:@SASFieldNet/f_deconv3_3/BatchNorm/beta"
      }
    }
  }
  attr {
    key: "allowed_devices"
    value {
      list {
      }
    }
  }
  attr {
    key: "container"
    value {
      s: ""
    }
  }
  attr {
    key: "dtype"
    value {
      type: DT_FLOAT
    }
  }
  attr {
    key: "shape"
    value {
      shape {
        dim {
          size: 64
        }
      }
    }
  }
  attr {
    key: "shared_name"
    value {
      s: "SASFieldNet/f_deconv3_3/BatchNorm/beta"
    }
  }
}
node {
  name: "SASFieldNet/f_deconv3_3/BatchNorm/beta/IsInitialized/VarIsInitializedOp"
  op: "VarIsInitializedOp"
  input: "SASFieldNet/f_deconv3_3/BatchNorm/beta"
}
node {
  name: "SASFieldNet/f_deconv3_3/BatchNorm/beta/Assign"
  op: "AssignVariableOp"
  input: "SASFieldNet/f_deconv3_3/BatchNorm/beta"
  input: "SASFieldNet/f_deconv3_3/BatchNorm/beta/Initializer/zeros"
  attr {
    key: "dtype"
    value {
      type: DT_FLOAT
    }
  }
}
node {
  name: "SASFieldNet/f_deconv3_3/BatchNorm/beta/Read/ReadVariableOp"
  op: "ReadVariableOp"
  input: "SASFieldNet/f_deconv3_3/BatchNorm/beta"
  attr {
    key: "dtype"
    value {
      type: DT_FLOAT
    }
  }
}
node {
  name: "SASFieldNet/f_deconv3_3/BatchNorm/moving_mean/Initializer/zeros"
  op: "Const"
  attr {
    key: "_class"
    value {
      list {
        s: "loc:@SASFieldNet/f_deconv3_3/BatchNorm/moving_mean"
      }
    }
  }
  attr {
    key: "dtype"
    value {
      type: DT_FLOAT
    }
  }
  attr {
    key: "value"
    value {
      tensor {
        dtype: DT_FLOAT
        tensor_shape {
          dim {
            size: 64
          }
        }
        float_val: 0.0
      }
    }
  }
}
node {
  name: "SASFieldNet/f_deconv3_3/BatchNorm/moving_mean"
  op: "VarHandleOp"
  attr {
    key: "_class"
    value {
      list {
        s: "loc:@SASFieldNet/f_deconv3_3/BatchNorm/moving_mean"
      }
    }
  }
  attr {
    key: "allowed_devices"
    value {
      list {
      }
    }
  }
  attr {
    key: "container"
    value {
      s: ""
    }
  }
  attr {
    key: "dtype"
    value {
      type: DT_FLOAT
    }
  }
  attr {
    key: "shape"
    value {
      shape {
        dim {
          size: 64
        }
      }
    }
  }
  attr {
    key: "shared_name"
    value {
      s: "SASFieldNet/f_deconv3_3/BatchNorm/moving_mean"
    }
  }
}
node {
  name: "SASFieldNet/f_deconv3_3/BatchNorm/moving_mean/IsInitialized/VarIsInitializedOp"
  op: "VarIsInitializedOp"
  input: "SASFieldNet/f_deconv3_3/BatchNorm/moving_mean"
}
node {
  name: "SASFieldNet/f_deconv3_3/BatchNorm/moving_mean/Assign"
  op: "AssignVariableOp"
  input: "SASFieldNet/f_deconv3_3/BatchNorm/moving_mean"
  input: "SASFieldNet/f_deconv3_3/BatchNorm/moving_mean/Initializer/zeros"
  attr {
    key: "dtype"
    value {
      type: DT_FLOAT
    }
  }
}
node {
  name: "SASFieldNet/f_deconv3_3/BatchNorm/moving_mean/Read/ReadVariableOp"
  op: "ReadVariableOp"
  input: "SASFieldNet/f_deconv3_3/BatchNorm/moving_mean"
  attr {
    key: "dtype"
    value {
      type: DT_FLOAT
    }
  }
}
node {
  name: "SASFieldNet/f_deconv3_3/BatchNorm/moving_variance/Initializer/ones"
  op: "Const"
  attr {
    key: "_class"
    value {
      list {
        s: "loc:@SASFieldNet/f_deconv3_3/BatchNorm/moving_variance"
      }
    }
  }
  attr {
    key: "dtype"
    value {
      type: DT_FLOAT
    }
  }
  attr {
    key: "value"
    value {
      tensor {
        dtype: DT_FLOAT
        tensor_shape {
          dim {
            size: 64
          }
        }
        float_val: 1.0
      }
    }
  }
}
node {
  name: "SASFieldNet/f_deconv3_3/BatchNorm/moving_variance"
  op: "VarHandleOp"
  attr {
    key: "_class"
    value {
      list {
        s: "loc:@SASFieldNet/f_deconv3_3/BatchNorm/moving_variance"
      }
    }
  }
  attr {
    key: "allowed_devices"
    value {
      list {
      }
    }
  }
  attr {
    key: "container"
    value {
      s: ""
    }
  }
  attr {
    key: "dtype"
    value {
      type: DT_FLOAT
    }
  }
  attr {
    key: "shape"
    value {
      shape {
        dim {
          size: 64
        }
      }
    }
  }
  attr {
    key: "shared_name"
    value {
      s: "SASFieldNet/f_deconv3_3/BatchNorm/moving_variance"
    }
  }
}
node {
  name: "SASFieldNet/f_deconv3_3/BatchNorm/moving_variance/IsInitialized/VarIsInitializedOp"
  op: "VarIsInitializedOp"
  input: "SASFieldNet/f_deconv3_3/BatchNorm/moving_variance"
}
node {
  name: "SASFieldNet/f_deconv3_3/BatchNorm/moving_variance/Assign"
  op: "AssignVariableOp"
  input: "SASFieldNet/f_deconv3_3/BatchNorm/moving_variance"
  input: "SASFieldNet/f_deconv3_3/BatchNorm/moving_variance/Initializer/ones"
  attr {
    key: "dtype"
    value {
      type: DT_FLOAT
    }
  }
}
node {
  name: "SASFieldNet/f_deconv3_3/BatchNorm/moving_variance/Read/ReadVariableOp"
  op: "ReadVariableOp"
  input: "SASFieldNet/f_deconv3_3/BatchNorm/moving_variance"
  attr {
    key: "dtype"
    value {
      type: DT_FLOAT
    }
  }
}
node {
  name: "SASFieldNet/f_deconv3_3/BatchNorm/ReadVariableOp"
  op: "ReadVariableOp"
  input: "SASFieldNet/f_deconv3_3/BatchNorm/beta"
  attr {
    key: "dtype"
    value {
      type: DT_FLOAT
    }
  }
}
node {
  name: "SASFieldNet/f_deconv3_3/BatchNorm/FusedBatchNormV3/ReadVariableOp"
  op: "ReadVariableOp"
  input: "SASFieldNet/f_deconv3_3/BatchNorm/moving_mean"
  attr {
    key: "dtype"
    value {
      type: DT_FLOAT
    }
  }
}
node {
  name: "SASFieldNet/f_deconv3_3/BatchNorm/FusedBatchNormV3/ReadVariableOp_1"
  op: "ReadVariableOp"
  input: "SASFieldNet/f_deconv3_3/BatchNorm/moving_variance"
  attr {
    key: "dtype"
    value {
      type: DT_FLOAT
    }
  }
}
node {
  name: "SASFieldNet/f_deconv3_3/BatchNorm/FusedBatchNormV3"
  op: "FusedBatchNormV3"
  input: "SASFieldNet/f_deconv3_3/Conv2D"
  input: "SASFieldNet/f_deconv3_3/BatchNorm/Const"
  input: "SASFieldNet/f_deconv3_3/BatchNorm/ReadVariableOp"
  input: "SASFieldNet/f_deconv3_3/BatchNorm/FusedBatchNormV3/ReadVariableOp"
  input: "SASFieldNet/f_deconv3_3/BatchNorm/FusedBatchNormV3/ReadVariableOp_1"
  attr {
    key: "T"
    value {
      type: DT_FLOAT
    }
  }
  attr {
    key: "U"
    value {
      type: DT_FLOAT
    }
  }
  attr {
    key: "data_format"
    value {
      s: "NHWC"
    }
  }
  attr {
    key: "epsilon"
    value {
      f: 0.0010000000474974513
    }
  }
  attr {
    key: "exponential_avg_factor"
    value {
      f: 1.0
    }
  }
  attr {
    key: "is_training"
    value {
      b: false
    }
  }
}
node {
  name: "SASFieldNet/f_deconv3_3/Relu"
  op: "Relu"
  input: "SASFieldNet/f_deconv3_3/BatchNorm/FusedBatchNormV3"
  attr {
    key: "T"
    value {
      type: DT_FLOAT
    }
  }
}
node {
  name: "SASFieldNet/f_deconv4_1/weights/Initializer/truncated_normal/shape"
  op: "Const"
  attr {
    key: "_class"
    value {
      list {
        s: "loc:@SASFieldNet/f_deconv4_1/weights"
      }
    }
  }
  attr {
    key: "dtype"
    value {
      type: DT_INT32
    }
  }
  attr {
    key: "value"
    value {
      tensor {
        dtype: DT_INT32
        tensor_shape {
          dim {
            size: 4
          }
        }
        tensor_content: "\002\000\000\000\002\000\000\000 \000\000\000@\000\000\000"
      }
    }
  }
}
node {
  name: "SASFieldNet/f_deconv4_1/weights/Initializer/truncated_normal/mean"
  op: "Const"
  attr {
    key: "_class"
    value {
      list {
        s: "loc:@SASFieldNet/f_deconv4_1/weights"
      }
    }
  }
  attr {
    key: "dtype"
    value {
      type: DT_FLOAT
    }
  }
  attr {
    key: "value"
    value {
      tensor {
        dtype: DT_FLOAT
        tensor_shape {
        }
        float_val: 0.0
      }
    }
  }
}
node {
  name: "SASFieldNet/f_deconv4_1/weights/Initializer/truncated_normal/stddev"
  op: "Const"
  attr {
    key: "_class"
    value {
      list {
        s: "loc:@SASFieldNet/f_deconv4_1/weights"
      }
    }
  }
  attr {
    key: "dtype"
    value {
      type: DT_FLOAT
    }
  }
  attr {
    key: "value"
    value {
      tensor {
        dtype: DT_FLOAT
        tensor_shape {
        }
        float_val: 0.009999999776482582
      }
    }
  }
}
node {
  name: "SASFieldNet/f_deconv4_1/weights/Initializer/truncated_normal/TruncatedNormal"
  op: "TruncatedNormal"
  input: "SASFieldNet/f_deconv4_1/weights/Initializer/truncated_normal/shape"
  attr {
    key: "T"
    value {
      type: DT_INT32
    }
  }
  attr {
    key: "_class"
    value {
      list {
        s: "loc:@SASFieldNet/f_deconv4_1/weights"
      }
    }
  }
  attr {
    key: "dtype"
    value {
      type: DT_FLOAT
    }
  }
  attr {
    key: "seed"
    value {
      i: 0
    }
  }
  attr {
    key: "seed2"
    value {
      i: 0
    }
  }
}
node {
  name: "SASFieldNet/f_deconv4_1/weights/Initializer/truncated_normal/mul"
  op: "Mul"
  input: "SASFieldNet/f_deconv4_1/weights/Initializer/truncated_normal/TruncatedNormal"
  input: "SASFieldNet/f_deconv4_1/weights/Initializer/truncated_normal/stddev"
  attr {
    key: "T"
    value {
      type: DT_FLOAT
    }
  }
  attr {
    key: "_class"
    value {
      list {
        s: "loc:@SASFieldNet/f_deconv4_1/weights"
      }
    }
  }
}
node {
  name: "SASFieldNet/f_deconv4_1/weights/Initializer/truncated_normal"
  op: "AddV2"
  input: "SASFieldNet/f_deconv4_1/weights/Initializer/truncated_normal/mul"
  input: "SASFieldNet/f_deconv4_1/weights/Initializer/truncated_normal/mean"
  attr {
    key: "T"
    value {
      type: DT_FLOAT
    }
  }
  attr {
    key: "_class"
    value {
      list {
        s: "loc:@SASFieldNet/f_deconv4_1/weights"
      }
    }
  }
}
node {
  name: "SASFieldNet/f_deconv4_1/weights"
  op: "VarHandleOp"
  attr {
    key: "_class"
    value {
      list {
        s: "loc:@SASFieldNet/f_deconv4_1/weights"
      }
    }
  }
  attr {
    key: "allowed_devices"
    value {
      list {
      }
    }
  }
  attr {
    key: "container"
    value {
      s: ""
    }
  }
  attr {
    key: "dtype"
    value {
      type: DT_FLOAT
    }
  }
  attr {
    key: "shape"
    value {
      shape {
        dim {
          size: 2
        }
        dim {
          size: 2
        }
        dim {
          size: 32
        }
        dim {
          size: 64
        }
      }
    }
  }
  attr {
    key: "shared_name"
    value {
      s: "SASFieldNet/f_deconv4_1/weights"
    }
  }
}
node {
  name: "SASFieldNet/f_deconv4_1/weights/IsInitialized/VarIsInitializedOp"
  op: "VarIsInitializedOp"
  input: "SASFieldNet/f_deconv4_1/weights"
}
node {
  name: "SASFieldNet/f_deconv4_1/weights/Assign"
  op: "AssignVariableOp"
  input: "SASFieldNet/f_deconv4_1/weights"
  input: "SASFieldNet/f_deconv4_1/weights/Initializer/truncated_normal"
  attr {
    key: "dtype"
    value {
      type: DT_FLOAT
    }
  }
}
node {
  name: "SASFieldNet/f_deconv4_1/weights/Read/ReadVariableOp"
  op: "ReadVariableOp"
  input: "SASFieldNet/f_deconv4_1/weights"
  attr {
    key: "dtype"
    value {
      type: DT_FLOAT
    }
  }
}
node {
  name: "SASFieldNet/f_deconv4_1/kernel/Regularizer/Square/ReadVariableOp"
  op: "ReadVariableOp"
  input: "SASFieldNet/f_deconv4_1/weights"
  attr {
    key: "dtype"
    value {
      type: DT_FLOAT
    }
  }
}
node {
  name: "SASFieldNet/f_deconv4_1/kernel/Regularizer/Square"
  op: "Square"
  input: "SASFieldNet/f_deconv4_1/kernel/Regularizer/Square/ReadVariableOp"
  attr {
    key: "T"
    value {
      type: DT_FLOAT
    }
  }
}
node {
  name: "SASFieldNet/f_deconv4_1/kernel/Regularizer/Const"
  op: "Const"
  attr {
    key: "dtype"
    value {
      type: DT_INT32
    }
  }
  attr {
    key: "value"
    value {
      tensor {
        dtype: DT_INT32
        tensor_shape {
          dim {
            size: 4
          }
        }
        tensor_content: "\000\000\000\000\001\000\000\000\002\000\000\000\003\000\000\000"
      }
    }
  }
}
node {
  name: "SASFieldNet/f_deconv4_1/kernel/Regularizer/Sum"
  op: "Sum"
  input: "SASFieldNet/f_deconv4_1/kernel/Regularizer/Square"
  input: "SASFieldNet/f_deconv4_1/kernel/Regularizer/Const"
  attr {
    key: "T"
    value {
      type: DT_FLOAT
    }
  }
  attr {
    key: "Tidx"
    value {
      type: DT_INT32
    }
  }
  attr {
    key: "keep_dims"
    value {
      b: false
    }
  }
}
node {
  name: "SASFieldNet/f_deconv4_1/kernel/Regularizer/mul/x"
  op: "Const"
  attr {
    key: "dtype"
    value {
      type: DT_FLOAT
    }
  }
  attr {
    key: "value"
    value {
      tensor {
        dtype: DT_FLOAT
        tensor_shape {
        }
        float_val: 0.0002500000118743628
      }
    }
  }
}
node {
  name: "SASFieldNet/f_deconv4_1/kernel/Regularizer/mul"
  op: "Mul"
  input: "SASFieldNet/f_deconv4_1/kernel/Regularizer/mul/x"
  input: "SASFieldNet/f_deconv4_1/kernel/Regularizer/Sum"
  attr {
    key: "T"
    value {
      type: DT_FLOAT
    }
  }
}
node {
  name: "SASFieldNet/f_deconv4_1/biases/Initializer/zeros"
  op: "Const"
  attr {
    key: "_class"
    value {
      list {
        s: "loc:@SASFieldNet/f_deconv4_1/biases"
      }
    }
  }
  attr {
    key: "dtype"
    value {
      type: DT_FLOAT
    }
  }
  attr {
    key: "value"
    value {
      tensor {
        dtype: DT_FLOAT
        tensor_shape {
          dim {
            size: 32
          }
        }
        float_val: 0.0
      }
    }
  }
}
node {
  name: "SASFieldNet/f_deconv4_1/biases"
  op: "VarHandleOp"
  attr {
    key: "_class"
    value {
      list {
        s: "loc:@SASFieldNet/f_deconv4_1/biases"
      }
    }
  }
  attr {
    key: "allowed_devices"
    value {
      list {
      }
    }
  }
  attr {
    key: "container"
    value {
      s: ""
    }
  }
  attr {
    key: "dtype"
    value {
      type: DT_FLOAT
    }
  }
  attr {
    key: "shape"
    value {
      shape {
        dim {
          size: 32
        }
      }
    }
  }
  attr {
    key: "shared_name"
    value {
      s: "SASFieldNet/f_deconv4_1/biases"
    }
  }
}
node {
  name: "SASFieldNet/f_deconv4_1/biases/IsInitialized/VarIsInitializedOp"
  op: "VarIsInitializedOp"
  input: "SASFieldNet/f_deconv4_1/biases"
}
node {
  name: "SASFieldNet/f_deconv4_1/biases/Assign"
  op: "AssignVariableOp"
  input: "SASFieldNet/f_deconv4_1/biases"
  input: "SASFieldNet/f_deconv4_1/biases/Initializer/zeros"
  attr {
    key: "dtype"
    value {
      type: DT_FLOAT
    }
  }
}
node {
  name: "SASFieldNet/f_deconv4_1/biases/Read/ReadVariableOp"
  op: "ReadVariableOp"
  input: "SASFieldNet/f_deconv4_1/biases"
  attr {
    key: "dtype"
    value {
      type: DT_FLOAT
    }
  }
}
node {
  name: "SASFieldNet/f_deconv4_1/Shape"
  op: "Shape"
  input: "SASFieldNet/f_deconv3_3/Relu"
  attr {
    key: "T"
    value {
      type: DT_FLOAT
    }
  }
  attr {
    key: "out_type"
    value {
      type: DT_INT32
    }
  }
}
node {
  name: "SASFieldNet/f_deconv4_1/strided_slice/stack"
  op: "Const"
  attr {
    key: "dtype"
    value {
      type: DT_INT32
    }
  }
  attr {
    key: "value"
    value {
      tensor {
        dtype: DT_INT32
        tensor_shape {
          dim {
            size: 1
          }
        }
        int_val: 0
      }
    }
  }
}
node {
  name: "SASFieldNet/f_deconv4_1/strided_slice/stack_1"
  op: "Const"
  attr {
    key: "dtype"
    value {
      type: DT_INT32
    }
  }
  attr {
    key: "value"
    value {
      tensor {
        dtype: DT_INT32
        tensor_shape {
          dim {
            size: 1
          }
        }
        int_val: 1
      }
    }
  }
}
node {
  name: "SASFieldNet/f_deconv4_1/strided_slice/stack_2"
  op: "Const"
  attr {
…
      }
      experimental_debug_info {
        original_node_names: "has_valid_nonscalar_shape/has_invalid_dims/concat/axis"
      }
    }
    node_def {
      name: "has_valid_nonscalar_shape/has_invalid_dims/concat"
      op: "ConcatV2"
      input: "has_valid_nonscalar_shape/has_invalid_dims/ExpandDims:output:0"
      input: "has_valid_nonscalar_shape/has_invalid_dims/ones_like:output:0"
      input: "has_valid_nonscalar_shape/has_invalid_dims/concat/axis:output:0"
      attr {
        key: "N"
        value {
          i: 2
        }
      }
      attr {
        key: "T"
        value {
          type: DT_INT32
        }
      }
      attr {
        key: "Tidx"
        value {
          type: DT_INT32
        }
      }
      experimental_debug_info {
        original_node_names: "has_valid_nonscalar_shape/has_invalid_dims/concat"
      }
    }
    node_def {
      name: "has_valid_nonscalar_shape/has_invalid_dims/ExpandDims_1/dim"
      op: "Const"
      attr {
        key: "dtype"
        value {
          type: DT_INT32
        }
      }
      attr {
        key: "value"
        value {
          tensor {
            dtype: DT_INT32
            tensor_shape {
            }
            int_val: -1
          }
        }
      }
      experimental_debug_info {
        original_node_names: "has_valid_nonscalar_shape/has_invalid_dims/ExpandDims_1/dim"
      }
    }
    node_def {
      name: "has_valid_nonscalar_shape/has_invalid_dims/ExpandDims_1"
      op: "ExpandDims"
      input: "has_valid_nonscalar_shape_has_invalid_dims_expanddims_1_mean_squared_error_3_num_present_broadcast_weights_assert_broadcastable_weights_shape"
      input: "has_valid_nonscalar_shape/has_invalid_dims/ExpandDims_1/dim:output:0"
      attr {
        key: "T"
        value {
          type: DT_INT32
        }
      }
      attr {
        key: "Tdim"
        value {
          type: DT_INT32
        }
      }
      experimental_debug_info {
        original_node_names: "has_valid_nonscalar_shape/has_invalid_dims/ExpandDims_1"
      }
    }
    node_def {
      name: "has_valid_nonscalar_shape/has_invalid_dims/DenseToDenseSetOperation"
      op: "DenseToDenseSetOperation"
      input: "has_valid_nonscalar_shape/has_invalid_dims/ExpandDims_1:output:0"
      input: "has_valid_nonscalar_shape/has_invalid_dims/concat:output:0"
      attr {
        key: "T"
        value {
          type: DT_INT32
        }
      }
      attr {
        key: "set_operation"
        value {
          s: "a-b"
        }
      }
      attr {
        key: "validate_indices"
        value {
          b: true
        }
      }
      experimental_debug_info {
        original_node_names: "has_valid_nonscalar_shape/has_invalid_dims/DenseToDenseSetOperation"
      }
    }
    node_def {
      name: "has_valid_nonscalar_shape/has_invalid_dims/num_invalid_dims"
      op: "Size"
      input: "has_valid_nonscalar_shape/has_invalid_dims/DenseToDenseSetOperation:result_values:0"
      attr {
        key: "T"
        value {
          type: DT_INT32
        }
      }
      attr {
        key: "out_type"
        value {
          type: DT_INT32
        }
      }
      experimental_debug_info {
        original_node_names: "has_valid_nonscalar_shape/has_invalid_dims/num_invalid_dims"
      }
    }
    node_def {
      name: "has_valid_nonscalar_shape/has_invalid_dims/x"
      op: "Const"
      attr {
        key: "dtype"
        value {
          type: DT_INT32
        }
      }
      attr {
        key: "value"
        value {
          tensor {
            dtype: DT_INT32
            tensor_shape {
            }
            int_val: 0
          }
        }
      }
      experimental_debug_info {
        original_node_names: "has_valid_nonscalar_shape/has_invalid_dims/x"
      }
    }
    node_def {
      name: "has_valid_nonscalar_shape/has_invalid_dims"
      op: "Equal"
      input: "has_valid_nonscalar_shape/has_invalid_dims/x:output:0"
      input: "has_valid_nonscalar_shape/has_invalid_dims/num_invalid_dims:output:0"
      attr {
        key: "T"
        value {
          type: DT_INT32
        }
      }
      attr {
        key: "incompatible_shape_error"
        value {
          b: true
        }
      }
      experimental_debug_info {
        original_node_names: "has_valid_nonscalar_shape/has_invalid_dims"
      }
    }
    ret {
      key: "has_valid_nonscalar_shape_has_invalid_dims"
      value: "has_valid_nonscalar_shape/has_invalid_dims:z:0"
    }
    attr {
      key: "_construction_context"
      value {
        s: "kEagerRuntime"
      }
    }
    arg_attr {
      value {
        attr {
          key: "_output_shapes"
          value {
            list {
              shape {
                dim {
                  size: 4
                }
              }
            }
          }
        }
      }
    }
    arg_attr {
      key: 1
      value {
        attr {
          key: "_output_shapes"
          value {
            list {
              shape {
                dim {
                  size: 4
                }
              }
            }
          }
        }
      }
    }
    arg_attr {
      key: 2
      value {
        attr {
          key: "_output_shapes"
          value {
            list {
              shape {
              }
            }
          }
        }
      }
    }
  }
  function {
    signature {
      name: "has_valid_nonscalar_shape_false_4350"
      input_arg {
        name: "has_valid_nonscalar_shape_placeholder"
        type: DT_INT32
      }
      input_arg {
        name: "has_valid_nonscalar_shape_placeholder_1"
        type: DT_INT32
      }
      input_arg {
        name: "has_valid_nonscalar_shape_has_valid_nonscalar_shape_is_same_rank_0"
        type: DT_BOOL
      }
      output_arg {
        name: "has_valid_nonscalar_shape_has_valid_nonscalar_shape_is_same_rank"
        type: DT_BOOL
      }
    }
    ret {
      key: "has_valid_nonscalar_shape_has_valid_nonscalar_shape_is_same_rank"
      value: "has_valid_nonscalar_shape_has_valid_nonscalar_shape_is_same_rank_0"
    }
    attr {
      key: "_construction_context"
      value {
        s: "kEagerRuntime"
      }
    }
    arg_attr {
      value {
        attr {
          key: "_output_shapes"
          value {
            list {
              shape {
                dim {
                  size: 3
                }
              }
            }
          }
        }
      }
    }
    arg_attr {
      key: 1
      value {
        attr {
          key: "_output_shapes"
          value {
            list {
              shape {
                dim {
                  size: 3
                }
              }
            }
          }
        }
      }
    }
    arg_attr {
      key: 2
      value {
        attr {
          key: "_output_shapes"
          value {
            list {
              shape {
              }
            }
          }
        }
      }
    }
  }
  function {
    signature {
      name: "mean_squared_error_3_num_present_broadcast_weights_assert_broadcastable_AssertGuard_true_3865"
      input_arg {
        name: "identity_mean_squared_error_3_num_present_broadcast_weights_assert_broadcastable_is_valid_shape_identity"
        type: DT_BOOL
      }
      input_arg {
        name: "placeholder"
        type: DT_INT32
      }
      input_arg {
        name: "placeholder_1"
        type: DT_INT32
      }
      input_arg {
        name: "placeholder_2"
        type: DT_BOOL
      }
      output_arg {
        name: "identity"
        type: DT_BOOL
      }
    }
    node_def {
      name: "NoOp"
      op: "NoOp"
      experimental_debug_info {
        original_node_names: "NoOp"
      }
    }
    node_def {
      name: "Identity"
      op: "Identity"
      input: "identity_mean_squared_error_3_num_present_broadcast_weights_assert_broadcastable_is_valid_shape_identity"
      input: "^NoOp"
      attr {
        key: "T"
        value {
          type: DT_BOOL
        }
      }
      experimental_debug_info {
        original_node_names: "Identity"
      }
    }
    ret {
      key: "identity"
      value: "Identity:output:0"
    }
    arg_attr {
      value {
        attr {
          key: "_output_shapes"
          value {
            list {
              shape {
              }
            }
          }
        }
      }
    }
    arg_attr {
      key: 1
      value {
        attr {
          key: "_output_shapes"
          value {
            list {
              shape {
                dim {
                  size: 4
                }
              }
            }
          }
        }
      }
    }
    arg_attr {
      key: 2
      value {
        attr {
          key: "_output_shapes"
          value {
            list {
              shape {
                dim {
                  size: 4
                }
              }
            }
          }
        }
      }
    }
    arg_attr {
      key: 3
      value {
        attr {
          key: "_output_shapes"
          value {
            list {
              shape {
              }
            }
          }
        }
      }
    }
  }
  function {
    signature {
      name: "has_valid_nonscalar_shape_false_4158"
      input_arg {
        name: "has_valid_nonscalar_shape_placeholder"
        type: DT_INT32
      }
      input_arg {
        name: "has_valid_nonscalar_shape_placeholder_1"
        type: DT_INT32
      }
      input_arg {
        name: "has_valid_nonscalar_shape_has_valid_nonscalar_shape_is_same_rank_0"
        type: DT_BOOL
      }
      output_arg {
        name: "has_valid_nonscalar_shape_has_valid_nonscalar_shape_is_same_rank"
        type: DT_BOOL
      }
    }
    ret {
      key: "has_valid_nonscalar_shape_has_valid_nonscalar_shape_is_same_rank"
      value: "has_valid_nonscalar_shape_has_valid_nonscalar_shape_is_same_rank_0"
    }
    attr {
      key: "_construction_context"
      value {
        s: "kEagerRuntime"
      }
    }
    arg_attr {
      value {
        attr {
          key: "_output_shapes"
          value {
            list {
              shape {
                dim {
                  size: 3
                }
              }
            }
          }
        }
      }
    }
    arg_attr {
      key: 1
      value {
        attr {
          key: "_output_shapes"
          value {
            list {
              shape {
                dim {
                  size: 3
                }
              }
            }
          }
        }
      }
    }
    arg_attr {
      key: 2
      value {
        attr {
          key: "_output_shapes"
          value {
            list {
              shape {
              }
            }
          }
        }
      }
    }
  }
  function {
    signature {
      name: "has_valid_nonscalar_shape_false_4438"
      input_arg {
        name: "has_valid_nonscalar_shape_placeholder"
        type: DT_INT32
      }
      input_arg {
        name: "has_valid_nonscalar_shape_placeholder_1"
        type: DT_INT32
      }
      input_arg {
        name: "has_valid_nonscalar_shape_has_valid_nonscalar_shape_is_same_rank_0"
        type: DT_BOOL
      }
      output_arg {
        name: "has_valid_nonscalar_shape_has_valid_nonscalar_shape_is_same_rank"
        type: DT_BOOL
      }
    }
    ret {
      key: "has_valid_nonscalar_shape_has_valid_nonscalar_shape_is_same_rank"
      value: "has_valid_nonscalar_shape_has_valid_nonscalar_shape_is_same_rank_0"
    }
    attr {
      key: "_construction_context"
      value {
        s: "kEagerRuntime"
      }
    }
    arg_attr {
      value {
        attr {
          key: "_output_shapes"
          value {
            list {
              shape {
                dim {
                  size: 3
                }
              }
            }
          }
        }
      }
    }
    arg_attr {
      key: 1
      value {
        attr {
          key: "_output_shapes"
          value {
            list {
              shape {
                dim {
                  size: 3
                }
              }
            }
          }
        }
      }
    }
    arg_attr {
      key: 2
      value {
        attr {
          key: "_output_shapes"
          value {
            list {
              shape {
              }
            }
          }
        }
      }
    }
  }
  function {
    signature {
      name: "mean_squared_error_assert_broadcastable_AssertGuard_false_2799"
      input_arg {
        name: "assert_mean_squared_error_assert_broadcastable_is_valid_shape_identity"
        type: DT_BOOL
      }
      input_arg {
        name: "assert_mean_squared_error_assert_broadcastable_weights_shape"
        type: DT_INT32
      }
      input_arg {
        name: "assert_mean_squared_error_assert_broadcastable_values_shape"
        type: DT_INT32
      }
      input_arg {
        name: "assert_mean_squared_error_assert_broadcastable_is_scalar"
        type: DT_BOOL
      }
      output_arg {
        name: "identity"
        type: DT_BOOL
      }
      is_stateful: true
    }
    node_def {
      name: "Assert/data_0"
      op: "Const"
      attr {
        key: "dtype"
        value {
          type: DT_STRING
        }
      }
      attr {
        key: "value"
        value {
          tensor {
            dtype: DT_STRING
            tensor_shape {
            }
            string_val: "weights can not be broadcast to values."
          }
        }
      }
      experimental_debug_info {
        original_node_names: "Assert/data_0"
      }
    }
    node_def {
      name: "Assert/data_1"
      op: "Const"
      attr {
        key: "dtype"
        value {
          type: DT_STRING
        }
      }
      attr {
        key: "value"
        value {
          tensor {
            dtype: DT_STRING
            tensor_shape {
            }
            string_val: "weights.shape="
          }
        }
      }
      experimental_debug_info {
        original_node_names: "Assert/data_1"
      }
    }
    node_def {
      name: "Assert/data_2"
      op: "Const"
      attr {
        key: "dtype"
        value {
          type: DT_STRING
        }
      }
      attr {
        key: "value"
        value {
          tensor {
            dtype: DT_STRING
            tensor_shape {
            }
            string_val: "Tile:0"
          }
        }
      }
      experimental_debug_info {
        original_node_names: "Assert/data_2"
      }
    }
    node_def {
      name: "Assert/data_4"
      op: "Const"
      attr {
        key: "dtype"
        value {
          type: DT_STRING
        }
      }
      attr {
        key: "value"
        value {
          tensor {
            dtype: DT_STRING
            tensor_shape {
            }
            string_val: "values.shape="
          }
        }
      }
      experimental_debug_info {
        original_node_names: "Assert/data_4"
      }
    }
    node_def {
      name: "Assert/data_5"
      op: "Const"
      attr {
        key: "dtype"
        value {
          type: DT_STRING
        }
      }
      attr {
        key: "value"
        value {
          tensor {
            dtype: DT_STRING
            tensor_shape {
            }
            string_val: "mean_squared_error/SquaredDifference:0"
          }
        }
      }
      experimental_debug_info {
        original_node_names: "Assert/data_5"
      }
    }
    node_def {
      name: "Assert/data_7"
      op: "Const"
      attr {
        key: "dtype"
        value {
          type: DT_STRING
        }
      }
      attr {
        key: "value"
        value {
          tensor {
            dtype: DT_STRING
            tensor_shape {
            }
            string_val: "is_scalar="
          }
        }
      }
      experimental_debug_info {
        original_node_names: "Assert/data_7"
      }
    }
    node_def {
      name: "Assert"
      op: "Assert"
      input: "assert_mean_squared_error_assert_broadcastable_is_valid_shape_identity"
      input: "Assert/data_0:output:0"
      input: "Assert/data_1:output:0"
      input: "Assert/data_2:output:0"
      input: "assert_mean_squared_error_assert_broadcastable_weights_shape"
      input: "Assert/data_4:output:0"
      input: "Assert/data_5:output:0"
      input: "assert_mean_squared_error_assert_broadcastable_values_shape"
      input: "Assert/data_7:output:0"
      input: "assert_mean_squared_error_assert_broadcastable_is_scalar"
      attr {
        key: "T"
        value {
          list {
            type: DT_STRING
            type: DT_STRING
            type: DT_STRING
            type: DT_INT32
            type: DT_STRING
            type: DT_STRING
            type: DT_INT32
            type: DT_STRING
            type: DT_BOOL
          }
        }
      }
      attr {
        key: "summarize"
        value {
          i: 3
        }
      }
      experimental_debug_info {
        original_node_names: "Assert"
      }
    }
    node_def {
      name: "Identity"
      op: "Identity"
      input: "assert_mean_squared_error_assert_broadcastable_is_valid_shape_identity"
      input: "^Assert"
      attr {
        key: "T"
        value {
          type: DT_BOOL
        }
      }
      experimental_debug_info {
        original_node_names: "Identity"
      }
    }
    ret {
      key: "identity"
      value: "Identity:output:0"
    }
    arg_attr {
      value {
        attr {
          key: "_output_shapes"
          value {
            list {
              shape {
              }
            }
          }
        }
      }
    }
    arg_attr {
      key: 1
      value {
        attr {
          key: "_output_shapes"
          value {
            list {
              shape {
                dim {
                  size: 4
                }
              }
            }
          }
        }
      }
    }
    arg_attr {
      key: 2
      value {
        attr {
          key: "_output_shapes"
          value {
            list {
              shape {
                dim {
                  size: 4
                }
              }
            }
          }
        }
      }
    }
    arg_attr {
      key: 3
      value {
        attr {
          key: "_output_shapes"
          value {
            list {
              shape {
              }
            }
          }
        }
      }
    }
  }
  function {
    signature {
      name: "has_valid_nonscalar_shape_true_3336"
      input_arg {
        name: "has_valid_nonscalar_shape_has_invalid_dims_expanddims_absolute_difference_1_assert_broadcastable_values_shape"
        type: DT_INT32
      }
      input_arg {
        name: "has_valid_nonscalar_shape_has_invalid_dims_expanddims_1_absolute_difference_1_assert_broadcastable_weights_shape"
        type: DT_INT32
      }
      input_arg {
        name: "has_valid_nonscalar_shape_placeholder"
        type: DT_BOOL
      }
      output_arg {
        name: "has_valid_nonscalar_shape_has_invalid_dims"
        type: DT_BOOL
      }
    }
    node_def {
      name: "has_valid_nonscalar_shape/has_invalid_dims/ExpandDims/dim"
      op: "Const"
      attr {
        key: "dtype"
        value {
          type: DT_INT32
        }
      }
      attr {
        key: "value"
        value {
          tensor {
            dtype: DT_INT32
            tensor_shape {
            }
            int_val: -1
          }
        }
      }
      experimental_debug_info {
        original_node_names: "has_valid_nonscalar_shape/has_invalid_dims/ExpandDims/dim"
      }
    }
    node_def {
      name: "has_valid_nonscalar_shape/has_invalid_dims/ExpandDims"
      op: "ExpandDims"
      input: "has_valid_nonscalar_shape_has_invalid_dims_expanddims_absolute_difference_1_assert_broadcastable_values_shape"
      input: "has_valid_nonscalar_shape/has_invalid_dims/ExpandDims/dim:output:0"
      attr {
        key: "T"
        value {
          type: DT_INT32
        }
      }
      attr {
        key: "Tdim"
        value {
          type: DT_INT32
        }
      }
      experimental_debug_info {
        original_node_names: "has_valid_nonscalar_shape/has_invalid_dims/ExpandDims"
      }
    }
    node_def {
      name: "has_valid_nonscalar_shape/has_invalid_dims/ones_like/Shape"
      op: "Const"
      attr {
        key: "dtype"
        value {
          type: DT_INT32
        }
      }
      attr {
        key: "value"
        value {
          tensor {
            dtype: DT_INT32
            tensor_shape {
              dim {
                size: 2
              }
            }
            tensor_content: "\004\000\000\000\001\000\000\000"
          }
        }
      }
      experimental_debug_info {
        original_node_names: "has_valid_nonscalar_shape/has_invalid_dims/ones_like/Shape"
      }
    }
    node_def {
      name: "has_valid_nonscalar_shape/has_invalid_dims/ones_like/Const"
      op: "Const"
      attr {
        key: "dtype"
        value {
          type: DT_INT32
        }
      }
      attr {
        key: "value"
        value {
          tensor {
            dtype: DT_INT32
            tensor_shape {
            }
            int_val: 1
          }
        }
      }
      experimental_debug_info {
        original_node_names: "has_valid_nonscalar_shape/has_invalid_dims/ones_like/Const"
      }
    }
    node_def {
      name: "has_valid_nonscalar_shape/has_invalid_dims/ones_like"
      op: "Fill"
      input: "has_valid_nonscalar_shape/has_invalid_dims/ones_like/Shape:output:0"
      input: "has_valid_nonscalar_shape/has_invalid_dims/ones_like/Const:output:0"
      attr {
        key: "T"
        value {
          type: DT_INT32
        }
      }
      attr {
        key: "index_type"
        value {
          type: DT_INT32
        }
      }
      experimental_debug_info {
        original_node_names: "has_valid_nonscalar_shape/has_invalid_dims/ones_like"
      }
    }
    node_def {
      name: "has_valid_nonscalar_shape/has_invalid_dims/concat/axis"
      op: "Const"
      attr {
        key: "dtype"
        value {
          type: DT_INT32
        }
      }
      attr {
        key: "value"
        value {
          tensor {
            dtype: DT_INT32
            tensor_shape {
            }
            int_val: 1
          }
        }
      }
      experimental_debug_info {
        original_node_names: "has_valid_nonscalar_shape/has_invalid_dims/concat/axis"
      }
    }
    node_def {
      name: "has_valid_nonscalar_shape/has_invalid_dims/concat"
      op: "ConcatV2"
      input: "has_valid_nonscalar_shape/has_invalid_dims/ExpandDims:output:0"
      input: "has_valid_nonscalar_shape/has_invalid_dims/ones_like:output:0"
      input: "has_valid_nonscalar_shape/has_invalid_dims/concat/axis:output:0"
      attr {
        key: "N"
        value {
          i: 2
        }
      }
      attr {
        key: "T"
        value {
          type: DT_INT32
        }
      }
      attr {
        key: "Tidx"
        value {
          type: DT_INT32
        }
      }
      experimental_debug_info {
        original_node_names: "has_valid_nonscalar_shape/has_invalid_dims/concat"
      }
    }
    node_def {
      name: "has_valid_nonscalar_shape/has_invalid_dims/ExpandDims_1/dim"
      op: "Const"
      attr {
        key: "dtype"
        value {
          type: DT_INT32
        }
      }
      attr {
        key: "value"
        value {
          tensor {
            dtype: DT_INT32
            tensor_shape {
            }
            int_val: -1
          }
        }
      }
      experimental_debug_info {
        original_node_names: "has_valid_nonscalar_shape/has_invalid_dims/ExpandDims_1/dim"
      }
    }
    node_def {
      name: "has_valid_nonscalar_shape/has_invalid_dims/ExpandDims_1"
      op: "ExpandDims"
      input: "has_valid_nonscalar_shape_has_invalid_dims_expanddims_1_absolute_difference_1_assert_broadcastable_weights_shape"
      input: "has_valid_nonscalar_shape/has_invalid_dims/ExpandDims_1/dim:output:0"
      attr {
        key: "T"
        value {
          type: DT_INT32
        }
      }
      attr {
        key: "Tdim"
        value {
          type: DT_INT32
        }
      }
      experimental_debug_info {
        original_node_names: "has_valid_nonscalar_shape/has_invalid_dims/ExpandDims_1"
      }
    }
    node_def {
      name: "has_valid_nonscalar_shape/has_invalid_dims/DenseToDenseSetOperation"
      op: "DenseToDenseSetOperation"
      input: "has_valid_nonscalar_shape/has_invalid_dims/ExpandDims_1:output:0"
      input: "has_valid_nonscalar_shape/has_invalid_dims/concat:output:0"
      attr {
        key: "T"
        value {
          type: DT_INT32
        }
      }
      attr {
        key: "set_operation"
        value {
          s: "a-b"
        }
      }
      attr {
        key: "validate_indices"
        value {
          b: true
        }
      }
      experimental_debug_info {
        original_node_names: "has_valid_nonscalar_shape/has_invalid_dims/DenseToDenseSetOperation"
      }
    }
    node_def {
      name: "has_valid_nonscalar_shape/has_invalid_dims/num_invalid_dims"
      op: "Size"
      input: "has_valid_nonscalar_shape/has_invalid_dims/DenseToDenseSetOperation:result_values:0"
      attr {
        key: "T"
        value {
          type: DT_INT32
        }
      }
      attr {
        key: "out_type"
        value {
          type: DT_INT32
        }
      }
      experimental_debug_info {
        original_node_names: "has_valid_nonscalar_shape/has_invalid_dims/num_invalid_dims"
      }
    }
    node_def {
      name: "has_valid_nonscalar_shape/has_invalid_dims/x"
      op: "Const"
      attr {
        key: "dtype"
        value {
          type: DT_INT32
        }
      }
      attr {
        key: "value"
        value {
          tensor {
            dtype: DT_INT32
            tensor_shape {
            }
            int_val: 0
          }
        }
      }
      experimental_debug_info {
        original_node_names: "has_valid_nonscalar_shape/has_invalid_dims/x"
      }
    }
    node_def {
      name: "has_valid_nonscalar_shape/has_invalid_dims"
      op: "Equal"
      input: "has_valid_nonscalar_shape/has_invalid_dims/x:output:0"
      input: "has_valid_nonscalar_shape/has_invalid_dims/num_invalid_dims:output:0"
      attr {
        key: "T"
        value {
          type: DT_INT32
        }
      }
      attr {
        key: "incompatible_shape_error"
        value {
          b: true
        }
      }
      experimental_debug_info {
        original_node_names: "has_valid_nonscalar_shape/has_invalid_dims"
      }
    }
    ret {
      key: "has_valid_nonscalar_shape_has_invalid_dims"
      value: "has_valid_nonscalar_shape/has_invalid_dims:z:0"
    }
    attr {
      key: "_construction_context"
      value {
        s: "kEagerRuntime"
      }
    }
    arg_attr {
      value {
        attr {
          key: "_output_shapes"
          value {
            list {
              shape {
                dim {
                  size: 4
                }
              }
            }
          }
        }
      }
    }
    arg_attr {
      key: 1
      value {
        attr {
          key: "_output_shapes"
          value {
            list {
              shape {
                dim {
                  size: 4
                }
              }
            }
          }
        }
      }
    }
    arg_attr {
      key: 2
      value {
        attr {
          key: "_output_shapes"
          value {
            list {
              shape {
              }
            }
          }
        }
      }
    }
  }
  function {
    signature {
      name: "absolute_difference_assert_broadcastable_is_valid_shape_false_2929"
      input_arg {
        name: "placeholder"
        type: DT_BOOL
      }
      input_arg {
        name: "has_valid_nonscalar_shape_is_same_rank_absolute_difference_assert_broadcastable_values_rank"
        type: DT_INT32
      }
      input_arg {
        name: "has_valid_nonscalar_shape_is_same_rank_absolute_difference_assert_broadcastable_weights_rank"
        type: DT_INT32
      }
      input_arg {
        name: "has_valid_nonscalar_shape_absolute_difference_assert_broadcastable_values_shape"
        type: DT_INT32
      }
      input_arg {
        name: "has_valid_nonscalar_shape_absolute_difference_assert_broadcastable_weights_shape"
        type: DT_INT32
      }
      output_arg {
        name: "has_valid_nonscalar_shape_identity"
        type: DT_BOOL
      }
    }
    node_def {
      name: "has_valid_nonscalar_shape/is_same_rank"
      op: "Equal"
      input: "has_valid_nonscalar_shape_is_same_rank_absolute_difference_assert_broadcastable_values_rank"
      input: "has_valid_nonscalar_shape_is_same_rank_absolute_difference_assert_broadcastable_weights_rank"
      attr {
        key: "T"
        value {
          type: DT_INT32
        }
      }
      attr {
        key: "incompatible_shape_error"
        value {
          b: true
        }
      }
      experimental_debug_info {
        original_node_names: "has_valid_nonscalar_shape/is_same_rank"
      }
    }
    node_def {
      name: "has_valid_nonscalar_shape"
      op: "StatelessIf"
      input: "has_valid_nonscalar_shape/is_same_rank:z:0"
      input: "has_valid_nonscalar_shape_absolute_difference_assert_broadcastable_values_shape"
      input: "has_valid_nonscalar_shape_absolute_difference_assert_broadcastable_weights_shape"
      input: "has_valid_nonscalar_shape/is_same_rank:z:0"
      attr {
        key: "Tcond"
        value {
          type: DT_BOOL
        }
      }
      attr {
        key: "Tin"
        value {
          list {
            type: DT_INT32
            type: DT_INT32
            type: DT_BOOL
          }
        }
      }
      attr {
        key: "Tout"
        value {
          list {
            type: DT_BOOL
          }
        }
      }
      attr {
        key: "_lower_using_switch_merge"
        value {
          b: true
        }
      }
      attr {
        key: "_read_only_resource_inputs"
        value {
          list {
          }
        }
      }
      attr {
        key: "else_branch"
        value {
          func {
            name: "has_valid_nonscalar_shape_false_2937"
          }
        }
      }
      attr {
        key: "output_shapes"
        value {
          list {
            shape {
            }
          }
        }
      }
      attr {
        key: "then_branch"
        value {
          func {
            name: "has_valid_nonscalar_shape_true_2936"
          }
        }
      }
      experimental_debug_info {
        original_node_names: "has_valid_nonscalar_shape"
      }
    }
    node_def {
      name: "has_valid_nonscalar_shape/Identity"
      op: "Identity"
      input: "has_valid_nonscalar_shape:output:0"
      attr {
        key: "T"
        value {
          type: DT_BOOL
        }
      }
      experimental_debug_info {
        original_node_names: "has_valid_nonscalar_shape/Identity"
      }
    }
    ret {
      key: "has_valid_nonscalar_shape_identity"
      value: "has_valid_nonscalar_shape/Identity:output:0"
    }
    arg_attr {
      value {
        attr {
          key: "_output_shapes"
          value {
            list {
              shape {
              }
            }
          }
        }
      }
    }
    arg_attr {
      key: 1
      value {
        attr {
          key: "_output_shapes"
          value {
            list {
              shape {
              }
            }
          }
        }
      }
    }
    arg_attr {
      key: 2
      value {
        attr {
          key: "_output_shapes"
          value {
            list {
              shape {
              }
            }
          }
        }
      }
    }
    arg_attr {
      key: 3
      value {
        attr {
          key: "_output_shapes"
          value {
            list {
              shape {
                dim {
                  size: 4
                }
              }
            }
          }
        }
      }
    }
    arg_attr {
      key: 4
      value {
        attr {
          key: "_output_shapes"
          value {
            list {
              shape {
                dim {
                  size: 4
                }
              }
            }
          }
        }
      }
    }
  }
  function {
    signature {
      name: "mean_squared_error_num_present_broadcast_weights_assert_broadcastable_AssertGuard_false_2887"
      input_arg {
        name: "assert_mean_squared_error_num_present_broadcast_weights_assert_broadcastable_is_valid_shape_identity"
        type: DT_BOOL
      }
      input_arg {
        name: "assert_mean_squared_error_num_present_broadcast_weights_assert_broadcastable_weights_shape"
        type: DT_INT32
      }
      input_arg {
        name: "assert_mean_squared_error_num_present_broadcast_weights_assert_broadcastable_values_shape"
        type: DT_INT32
      }
      input_arg {
        name: "assert_mean_squared_error_num_present_broadcast_weights_assert_broadcastable_is_scalar"
        type: DT_BOOL
      }
      output_arg {
        name: "identity"
        type: DT_BOOL
      }
      is_stateful: true
    }
    node_def {
      name: "Assert/data_0"
      op: "Const"
      attr {
        key: "dtype"
        value {
          type: DT_STRING
        }
      }
      attr {
        key: "value"
        value {
          tensor {
            dtype: DT_STRING
            tensor_shape {
            }
            string_val: "weights can not be broadcast to values."
          }
        }
      }
      experimental_debug_info {
        original_node_names: "Assert/data_0"
      }
    }
    node_def {
      name: "Assert/data_1"
      op: "Const"
      attr {
        key: "dtype"
        value {
          type: DT_STRING
        }
      }
      attr {
        key: "value"
        value {
          tensor {
            dtype: DT_STRING
            tensor_shape {
            }
            string_val: "weights.shape="
          }
        }
      }
      experimental_debug_info {
        original_node_names: "Assert/data_1"
      }
    }
    node_def {
      name: "Assert/data_2"
      op: "Const"
      attr {
        key: "dtype"
        value {
          type: DT_STRING
        }
      }
      attr {
        key: "value"
        value {
          tensor {
            dtype: DT_STRING
            tensor_shape {
            }
            string_val: "mean_squared_error/num_present/Select:0"
          }
        }
      }
      experimental_debug_info {
        original_node_names: "Assert/data_2"
      }
    }
    node_def {
      name: "Assert/data_4"
      op: "Const"
      attr {
        key: "dtype"
        value {
          type: DT_STRING
        }
      }
      attr {
        key: "value"
        value {
          tensor {
            dtype: DT_STRING
            tensor_shape {
            }
            string_val: "values.shape="
          }
        }
      }
      experimental_debug_info {
        original_node_names: "Assert/data_4"
      }
    }
    node_def {
      name: "Assert/data_5"
      op: "Const"
      attr {
        key: "dtype"
        value {
          type: DT_STRING
        }
      }
      attr {
        key: "value"
        value {
          tensor {
            dtype: DT_STRING
            tensor_shape {
            }
            string_val: "mean_squared_error/SquaredDifference:0"
          }
        }
      }
      experimental_debug_info {
        original_node_names: "Assert/data_5"
      }
    }
    node_def {
      name: "Assert/data_7"
      op: "Const"
      attr {
        key: "dtype"
        value {
          type: DT_STRING
        }
      }
      attr {
        key: "value"
        value {
          tensor {
            dtype: DT_STRING
            tensor_shape {
            }
            string_val: "is_scalar="
          }
        }
      }
      experimental_debug_info {
        original_node_names: "Assert/data_7"
      }
    }
    node_def {
      name: "Assert"
      op: "Assert"
      input: "assert_mean_squared_error_num_present_broadcast_weights_assert_broadcastable_is_valid_shape_identity"
      input: "Assert/data_0:output:0"
      input: "Assert/data_1:output:0"
      input: "Assert/data_2:output:0"
      input: "assert_mean_squared_error_num_present_broadcast_weights_assert_broadcastable_weights_shape"
      input: "Assert/data_4:output:0"
      input: "Assert/data_5:output:0"
      input: "assert_mean_squared_error_num_present_broadcast_weights_assert_broadcastable_values_shape"
      input: "Assert/data_7:output:0"
      input: "assert_mean_squared_error_num_present_broadcast_weights_assert_broadcastable_is_scalar"
      attr {
        key: "T"
        value {
          list {
            type: DT_STRING
            type: DT_STRING
            type: DT_STRING
            type: DT_INT32
            type: DT_STRING
            type: DT_STRING
            type: DT_INT32
            type: DT_STRING
            type: DT_BOOL
          }
        }
      }
      attr {
        key: "summarize"
        value {
          i: 3
        }
      }
      experimental_debug_info {
        original_node_names: "Assert"
      }
    }
    node_def {
      name: "Identity"
      op: "Identity"
      input: "assert_mean_squared_error_num_present_broadcast_weights_assert_broadcastable_is_valid_shape_identity"
      input: "^Assert"
      attr {
        key: "T"
        value {
          type: DT_BOOL
        }
      }
      experimental_debug_info {
        original_node_names: "Identity"
      }
    }
    ret {
      key: "identity"
      value: "Identity:output:0"
    }
    arg_attr {
      value {
        attr {
          key: "_output_shapes"
          value {
            list {
              shape {
              }
            }
          }
        }
      }
    }
    arg_attr {
      key: 1
      value {
        attr {
          key: "_output_shapes"
          value {
            list {
              shape {
                dim {
                  size: 4
                }
              }
            }
          }
        }
      }
    }
    arg_attr {
      key: 2
      value {
        attr {
          key: "_output_shapes"
          value {
            list {
              shape {
                dim {
                  size: 4
                }
              }
            }
          }
        }
      }
    }
    arg_attr {
      key: 3
      value {
        attr {
          key: "_output_shapes"
          value {
            list {
              shape {
              }
            }
          }
        }
      }
    }
  }
  function {
    signature {
      name: "mean_squared_error_3_num_present_broadcast_weights_assert_broadcastable_is_valid_shape_true_3815"
      input_arg {
        name: "mean_squared_error_3_num_present_broadcast_weights_assert_broadcastable_is_scalar_0"
        type: DT_BOOL
      }
      input_arg {
        name: "placeholder"
        type: DT_INT32
      }
      input_arg {
        name: "placeholder_1"
        type: DT_INT32
      }
      input_arg {
        name: "placeholder_2"
        type: DT_INT32
      }
      input_arg {
        name: "placeholder_3"
        type: DT_INT32
      }
      output_arg {
        name: "mean_squared_error_3_num_present_broadcast_weights_assert_broadcastable_is_scalar"
        type: DT_BOOL
      }
    }
    ret {
      key: "mean_squared_error_3_num_present_broadcast_weights_assert_broadcastable_is_scalar"
      value: "mean_squared_error_3_num_present_broadcast_weights_assert_broadcastable_is_scalar_0"
    }
    arg_attr {
      value {
        attr {
          key: "_output_shapes"
          value {
            list {
              shape {
              }
            }
          }
        }
      }
    }
    arg_attr {
      key: 1
      value {
        attr {
          key: "_output_shapes"
          value {
            list {
              shape {
              }
            }
          }
        }
      }
    }
    arg_attr {
      key: 2
      value {
        attr {
          key: "_output_shapes"
          value {
            list {
              shape {
              }
            }
          }
        }
      }
    }
    arg_attr {
      key: 3
      value {
        attr {
          key: "_output_shapes"
          value {
            list {
              shape {
                dim {
                  size: 4
                }
              }
            }
          }
        }
      }
    }
    arg_attr {
      key: 4
      value {
        attr {
          key: "_output_shapes"
          value {
            list {
              shape {
                dim {
                  size: 4
                }
              }
            }
          }
        }
      }
    }
  }
  function {
    signature {
      name: "has_valid_nonscalar_shape_true_3735"
      input_arg {
        name: "has_valid_nonscalar_shape_has_invalid_dims_expanddims_mean_squared_error_3_assert_broadcastable_values_shape"
        type: DT_INT32
      }
      input_arg {
        name: "has_valid_nonscalar_shape_has_invalid_dims_expanddims_1_mean_squared_error_3_assert_broadcastable_weights_shape"
        type: DT_INT32
      }
      input_arg {
        name: "has_valid_nonscalar_shape_placeholder"
        type: DT_BOOL
      }
      output_arg {
        name: "has_valid_nonscalar_shape_has_invalid_dims"
        type: DT_BOOL
      }
    }
    node_def {
      name: "has_valid_nonscalar_shape/has_invalid_dims/ExpandDims/dim"
      op: "Const"
      attr {
        key: "dtype"
        value {
          type: DT_INT32
        }
      }
      attr {
        key: "value"
        value {
          tensor {
            dtype: DT_INT32
            tensor_shape {
            }
            int_val: -1
          }
        }
      }
      experimental_debug_info {
        original_node_names: "has_valid_nonscalar_shape/has_invalid_dims/ExpandDims/dim"
      }
    }
    node_def {
      name: "has_valid_nonscalar_shape/has_invalid_dims/ExpandDims"
      op: "ExpandDims"
      input: "has_valid_nonscalar_shape_has_invalid_dims_expanddims_mean_squared_error_3_assert_broadcastable_values_shape"
      input: "has_valid_nonscalar_shape/has_invalid_dims/ExpandDims/dim:output:0"
      attr {
        key: "T"
        value {
          type: DT_INT32
        }
      }
      attr {
        key: "Tdim"
        value {
          type: DT_INT32
        }
      }
      experimental_debug_info {
        original_node_names: "has_valid_nonscalar_shape/has_invalid_dims/ExpandDims"
      }
    }
    node_def {
      name: "has_valid_nonscalar_shape/has_invalid_dims/ones_like/Shape"
      op: "Const"
      attr {
        key: "dtype"
        value {
          type: DT_INT32
        }
      }
      attr {
        key: "value"
        value {
          tensor {
            dtype: DT_INT32
            tensor_shape {
              dim {
                size: 2
              }
            }
            tensor_content: "\004\000\000\000\001\000\000\000"
          }
        }
      }
      experimental_debug_info {
        original_node_names: "has_valid_nonscalar_shape/has_invalid_dims/ones_like/Shape"
      }
    }
    node_def {
      name: "has_valid_nonscalar_shape/has_invalid_dims/ones_like/Const"
      op: "Const"
      attr {
        key: "dtype"
        value {
          type: DT_INT32
        }
      }
      attr {
        key: "value"
        value {
          tensor {
            dtype: DT_INT32
            tensor_shape {
            }
            int_val: 1
          }
        }
      }
      experimental_debug_info {
        original_node_names: "has_valid_nonscalar_shape/has_invalid_dims/ones_like/Const"
      }
    }
    node_def {
      name: "has_valid_nonscalar_shape/has_invalid_dims/ones_like"
      op: "Fill"
      input: "has_valid_nonscalar_shape/has_invalid_dims/ones_like/Shape:output:0"
      input: "has_valid_nonscalar_shape/has_invalid_dims/ones_like/Const:output:0"
      attr {
        key: "T"
        value {
          type: DT_INT32
        }
      }
      attr {
        key: "index_type"
        value {
          type: DT_INT32
        }
      }
      experimental_debug_info {
        original_node_names: "has_valid_nonscalar_shape/has_invalid_dims/ones_like"
      }
    }
    node_def {
      name: "has_valid_nonscalar_shape/has_invalid_dims/concat/axis"
      op: "Const"
      attr {
        key: "dtype"
        value {
          type: DT_INT32
        }
      }
      attr {
        key: "value"
        value {
          tensor {
            dtype: DT_INT32
            tensor_shape {
            }
            int_val: 1
          }
        }
      }
      experimental_debug_info {
        original_node_names: "has_valid_nonscalar_shape/has_invalid_dims/concat/axis"
      }
    }
    node_def {
      name: "has_valid_nonscalar_shape/has_invalid_dims/concat"
      op: "ConcatV2"
      input: "has_valid_nonscalar_shape/has_invalid_dims/ExpandDims:output:0"
      input: "has_valid_nonscalar_shape/has_invalid_dims/ones_like:output:0"
      input: "has_valid_nonscalar_shape/has_invalid_dims/concat/axis:output:0"
      attr {
        key: "N"
        value {
          i: 2
        }
      }
      attr {
        key: "T"
        value {
          type: DT_INT32
        }
      }
      attr {
        key: "Tidx"
        value {
          type: DT_INT32
        }
      }
      experimental_debug_info {
        original_node_names: "has_valid_nonscalar_shape/has_invalid_dims/concat"
      }
    }
    node_def {
      name: "has_valid_nonscalar_shape/has_invalid_dims/ExpandDims_1/dim"
      op: "Const"
      attr {
        key: "dtype"
        value {
          type: DT_INT32
        }
      }
      attr {
        key: "value"
        value {
          tensor {
            dtype: DT_INT32
            tensor_shape {
            }
            int_val: -1
          }
        }
      }
      experimental_debug_info {
        original_node_names: "has_valid_nonscalar_shape/has_invalid_dims/ExpandDims_1/dim"
      }
    }
    node_def {
      name: "has_valid_nonscalar_shape/has_invalid_dims/ExpandDims_1"
      op: "ExpandDims"
      input: "has_valid_nonscalar_shape_has_invalid_dims_expanddims_1_mean_squared_error_3_assert_broadcastable_weights_shape"
      input: "has_valid_nonscalar_shape/has_invalid_dims/ExpandDims_1/dim:output:0"
      attr {
        key: "T"
        value {
          type: DT_INT32
        }
      }
      attr {
        key: "Tdim"
        value {
          type: DT_INT32
        }
      }
      experimental_debug_info {
        original_node_names: "has_valid_nonscalar_shape/has_invalid_dims/ExpandDims_1"
      }
    }
    node_def {
      name: "has_valid_nonscalar_shape/has_invalid_dims/DenseToDenseSetOperation"
      op: "DenseToDenseSetOperation"
      input: "has_valid_nonscalar_shape/has_invalid_dims/ExpandDims_1:output:0"
      input: "has_valid_nonscalar_shape/has_invalid_dims/concat:output:0"
      attr {
        key: "T"
        value {
          type: DT_INT32
        }
      }
      attr {
        key: "set_operation"
        value {
          s: "a-b"
        }
      }
      attr {
        key: "validate_indices"
        value {
          b: true
        }
      }
      experimental_debug_info {
        original_node_names: "has_valid_nonscalar_shape/has_invalid_dims/DenseToDenseSetOperation"
      }
    }
    node_def {
      name: "has_valid_nonscalar_shape/has_invalid_dims/num_invalid_dims"
      op: "Size"
      input: "has_valid_nonscalar_shape/has_invalid_dims/DenseToDenseSetOperation:result_values:0"
      attr {
        key: "T"
        value {
          type: DT_INT32
        }
      }
      attr {
        key: "out_type"
        value {
          type: DT_INT32
        }
      }
      experimental_debug_info {
        original_node_names: "has_valid_nonscalar_shape/has_invalid_dims/num_invalid_dims"
      }
    }
    node_def {
      name: "has_valid_nonscalar_shape/has_invalid_dims/x"
      op: "Const"
      attr {
        key: "dtype"
        value {
          type: DT_INT32
        }
      }
      attr {
        key: "value"
        value {
          tensor {
            dtype: DT_INT32
            tensor_shape {
            }
            int_val: 0
          }
        }
      }
      experimental_debug_info {
        original_node_names: "has_valid_nonscalar_shape/has_invalid_dims/x"
      }
    }
    node_def {
      name: "has_valid_nonscalar_shape/has_invalid_dims"
      op: "Equal"
      input: "has_valid_nonscalar_shape/has_invalid_dims/x:output:0"
      input: "has_valid_nonscalar_shape/has_invalid_dims/num_invalid_dims:output:0"
      attr {
        key: "T"
        value {
          type: DT_INT32
        }
      }
      attr {
        key: "incompatible_shape_error"
        value {
          b: true
        }
      }
      experimental_debug_info {
        original_node_names: "has_valid_nonscalar_shape/has_invalid_dims"
      }
    }
    ret {
      key: "has_valid_nonscalar_shape_has_invalid_dims"
      value: "has_valid_nonscalar_shape/has_invalid_dims:z:0"
    }
    attr {
      key: "_construction_context"
      value {
        s: "kEagerRuntime"
      }
    }
    arg_attr {
      value {
        attr {
          key: "_output_shapes"
          value {
            list {
              shape {
                dim {
                  size: 4
                }
              }
            }
          }
        }
      }
    }
    arg_attr {
      key: 1
      value {
        attr {
          key: "_output_shapes"
          value {
            list {
              shape {
                dim {
                  size: 4
                }
              }
            }
          }
        }
      }
    }
    arg_attr {
      key: 2
      value {
        attr {
          key: "_output_shapes"
          value {
            list {
              shape {
              }
            }
          }
        }
      }
    }
  }
}
versions {
  producer: 808
  min_consumer: 12
}
